5.MyModel/my_network.onnx (onnx, 389061 bytes, 12 tensors)

45 f4 [6, 3, 3, 3]
0.079909265 -0.40035558 -0.24765342 -0.19236253 -0.23728931 0.6385098 0.24287075 0.47769693
-0.22963047 0.22934312 -0.15891764 -0.2858487 -0.3255726 0.012331817 0.43380243 0.07008005
0.22818416 -0.07601918 0.49826118 -0.73482716 -0.19086765 -0.1922171 0.2772076 0.46112144
-0.43316004 0.109581985 0.18661185 -0.5781809 -0.58577543 -0.49322438 -0.11936629 -0.046093628
-0.09015634 0.47940418 0.4364889 0.13688962 -0.01923281 0.13172583 0.20552467 0.21369705
0.0359445 0.018103017 -0.46100152 -0.27504867 -0.014518183 0.36675358 0.11384565 0.061690025
0.26424155 0.2474282 0.53462344 -0.36484104 -0.27161863 0.10711766 0.07525601 0.009732638
-0.09108963 -0.08868241 0.055967003 0.07422162 -0.28606462 0.31677496 0.14108409 -0.19057222
0.046900004 0.09988826 -0.298055 0.15831228 -0.08873856 -0.37111652 -0.09389656 0.31155264
-0.11817686 -0.08328258 0.13608937 -0.2737836 0.19808748 0.3322585 -0.31049767 0.106581345
0.21037437 0.019498587 -0.2066458 0.65227234 -0.22374637 -0.4135348 -0.15016226 0.121360235
0.429715 -0.5480838 -0.17773135 -0.06076388 0.5691498 -0.19523692 -0.41102406 0.48509002
0.3555608 -0.007571043 -0.4888429 0.29827952 -0.40192178 -0.015952194 -0.25063697 0.17559917
0.017815588 0.4050126 0.16206771 -0.44999537 0.57835996 -0.08971712 -0.17342524 0.0002917819
-0.18237594 -0.4018247 0.42272156 0.104557045 0.25662193 0.40061522 0.86041725 -0.18352355
-0.5235031 -0.24990916 -0.2734384 -0.76971316 0.18505652 -0.29529232 -0.49925774 0.2828511
0.36636975 0.2556306 -0.25553972 -0.09995914 0.13944954 -0.22571021 0.09817131 -0.24554573
0.021727541 0.09599448 0.2933502 0.16108696 0.22011088 -0.2711336 0.31936035 0.03260771
-0.19630569 -0.14243513 -0.088755086 0.19247921 -0.09750795 -0.15921792 0.09617319 0.13475505
-0.2516547 -0.22142075 -0.20189352 0.012820214 0.3323753 -0.18822438 -0.06834601 0.21906233
0.21036074 0.36840522
00000000: 78a7 a33d 68fb ccbe dc98 7dbe affa 44be
00000010: f8fb 72be 6175 233f 1cb3 783e b194 f43e
00000020: 4024 6bbe ecd8 6a3e 4ebb 22be c35a 92be
00000030: 74b1 a6be 640b 4a3c 5a1b de3e 2186 8f3d
00000040: 1ca9 693e f2af 9bbd 171c ff3e a21d 3cbf
00000050: cf72 43be 8fd4 44be 28ee 8d3e 1c18 ec3e
00000060: 27c7 ddbe 856c e03d 2d17 3f3e aa03 14bf
00000070: 61f5 15bf e887 fcbe 5076 f4bd accc 3cbd
00000080: e3a3 b8bd 7774 f53e 797b df3e cb2c 0c3e
00000090: 208e 9dbc 23e3 063e 0f75 523e 66d3 5a3e
000000a0: 8a3a 133d c74c 943c 6408 ecbe 2ed3 8cbe
000000b0: acdd 6dbc 20c7 bb3e e827 e93d aeae 7c3d
000000c0: ab4a 873e d15d 7d3e 15dd 083f 72cc babe
000000d0: 9911 8bbe 8160 db3d d31f 9a3d a475 1f3c
000000e0: 338d babd 209f b5bd a83d 653d 8101 983d
000000f0: 1077 92be 5430 a23e 5978 103e 5d25 43be
00000100: 381a 403d 3792 cc3d aa9a 98be 9d1c 223e
00000110: 90bc b5bd fc02 bebe d74c c0bd d483 9f3e
00000120: b606 f2bd 0f90 aabd 035b 0b3e 5d2d 8cbe
00000130: 72d7 4a3e c91d aa3e 8df9 9ebe 5247 da3d
00000140: 616c 573e 80bb 9f3c f59a 53be 52fb 263f
00000150: c51d 65be d5ba d3be 23c4 19be b78b f83d
00000160: 9b03 dc3e 384f 0cbf 35ff 35be 8ce3 78bd
00000170: cdb3 113f 30ec 47be bf71 d2be b85d f83e
00000180: 110c b63e 8316 f8bb 9e49 fabe 18b8 983e
00000190: b1c8 cdbe 2dae 82bc 7d53 80be 45d0 333e
000001a0: fff1 913c d05d cf3e 14f5 253e cb65 e6be
000001b0: 660f 143f 9cbd b7bd 6396 31be 4efa 9839
000001c0: c2c0 3abe f8bb cdbe f66e d83e 0122 d63d
000001d0: f363 833e 701d cd3e 4e44 5c3f 99ed 3bbe
000001e0: 4d04 06bf 30e8 7fbe 1e00 8cbe ec0b 45bf
000001f0: 757f 3d3e 8e30 97be b69e ffbe dcd1 903e
00000200: d194 bb3e 04e2 823e 1ad6 82be 61b7 ccbd
00000210: dccb 0e3e 9420 67be 0a0e c93d 5770 7bbe
00000220: f5fd b13c c198 c43d ff31 963e fbf3 243e
00000230: bf64 613e 06d2 8abe 3383 a33e aa8f 053d
00000240: 5c04 49be 84da 11be 3ac5 b5bd 4519 453e
00000250: 40b2 c7bd 060a 23be 73f6 c43d 3afd 093e
00000260: e3d8 80be 1fbc 62be 2dbd 4ebe e00b 523c
00000270: 182d aa3e e4bd 40be fef8 8bbd e051 603e
00000280: ce68 573e 9c9f bc3e

46 f4 [6]
0.14048412 0.16902411 -0.031618483 0.11672491 0.043760914 0.09889202
00000000: 12db 0f3e a814 2d3e 6282 01bd 780d ef3d
00000010: a53e 333d e687 ca3d

48 f4 [12, 6, 3, 3]
0.13687207 -0.13086346 0.23032002 0.22377005 -0.1229145 -0.0708053 -0.047914643 -0.13621907
-0.19231401 0.08946165 -0.12611678 0.08833013 0.13025582 -0.2040233 0.13156782 0.20013602
-0.34019038 -0.029960247 -0.11795978 0.04405989 -0.036514606 0.39542815 -0.04594661 0.6021721
0.18022889 0.07437061 0.30316657 -0.09680047 0.0418857 0.0914034 0.06061605 0.13486166
0.03863678 -0.299921 0.0028362533 -0.33473945 0.0027344262 -0.040455375 0.16353995 -0.022345338
0.17763962 -0.13809307 -0.24341217 -0.03330355 -0.36126179 0.1752552 -0.15577035 -0.18315358
-0.113596246 -0.052246172 -0.27831766 -0.016672613 0.011625804 -0.36176354 0.02264076 -0.083963186
0.29397178 0.039293837 0.053105302 0.17089024 0.15435493 0.2885699 -0.21512778 -0.08841692
-0.23190612 0.025827922 -0.2504477 -0.07477779 -0.15829168 -0.0038529255 -0.23098098 -0.15956867
-0.09523297 0.014017743 0.017378313 -0.03915506 0.056878082 0.17177604 0.032701205 0.09335896
-0.14507711 0.07567129 0.21303819 0.022405539 0.049663316 -0.09147064 0.19475934 0.106797725
-0.08102132 0.08974325 0.01752973 -0.12671098 0.017718032 0.035697296 0.16904622 -0.206176
-0.011267887 -0.21701668 0.09176453 0.12801059 -0.18249822 -0.18100962 -0.0013150764 -0.19656748
0.09030945 -0.1655015 -0.19729124 0.04385937 -0.21710548 -0.37112182 -0.18397446 -0.15526861
-0.22219463 -0.3240556 -0.0017945793 0.09551122 -0.013845389 0.007099825 -0.099854104 0.12237527
0.28357998 -0.019455109 -0.19926149 0.071679786 -0.102851786 -0.03433624 -0.07579627 0.22828475
0.25109398 0.26503298 -0.1861666 0.18383399 0.015075591 0.11410465 -0.28324288 0.22022156
0.31943616 0.0037013246 0.165066 0.33680025 0.13984242 -0.020637449 -0.035872076 0.14553155
-0.07976403 0.039095294 -0.030858679 0.048339237 -0.22650878 -0.110149436 0.09625491 -0.0010149908
0.06971665 0.21345113 0.21677999 -0.13879065 -0.1214768 0.16335839 -0.06267071 -0.06961461
-0.08290207 0.25929177 0.15274754 0.1524898 0.016197544 0.077881485 0.08980095 0.043371003
0.06684831 0.06494498 -0.16768017 0.18053976 0.12524006 -0.0011980615 0.066491246 -0.108577706
0.1409882 -0.039644383 0.013973484 -0.06972752 0.1198732 0.14428106 -0.09218877 -0.07946248
0.00582796 -0.122056544 0.040749785 -0.037139192 0.08384715 -0.04586157 -0.04469965 -0.026615584
-0.11244759 -0.19166362 -0.12022128 -0.079735845 -0.007065673 0.09840422 -0.0201007 0.085007645
-0.010091178 -0.11188748 -0.16649312 0.0069956295 0.08756547 0.10540856 -0.14865097 0.15375753
0.17790526 0.06145132 -0.009615236 0.08245797 0.06973913 0.011897925 0.07176738 0.01643456
0.2569362 -0.2571702 -0.15870932 -0.053976882 0.0072493353 -0.38396472 0.14191094 0.050952505
-0.15992871 0.13320903 0.1793303 -0.053292617 0.036197446 -0.4281586 -0.32010955 0.061160427
-0.31537598 -0.14155719 -0.18790612 0.22981487 0.15349074 0.03694722 0.07317273 0.250145
0.045431 0.15700237 0.3042158 0.07328774 -0.16893476 0.051179085 -0.21213561 -0.10826446
-0.24321994 -0.0991763 -0.089810856 -0.058416914 0.17140125 -0.22330041 0.064699695 0.013120913
00000000: 3128 0c3e 1201 06be 03d9 6b3e fa23 653e
00000010: 99ba fbbd 5e02 91bd 2542 44bd 037d 0bbe
00000020: f7ed 44be ab37 b73d c224 01be 6de6 b43d
00000030: c861 053e 7ceb 50be b7b9 063e 75f0 4c3e
00000040: 6f2d aebe 316f f5bc e694 f1bd 2578 343d
00000050: 5790 15bd 8f75 ca3e 8332 3cbd f327 1a3f
00000060: ec8d 383e 9e4f 983d a638 9b3e 533f c6bd
00000070: 5790 2b3d b531 bb3d 8948 783d 2d19 0a3e
00000080: 9a41 1e3d 3f8f 99be 6fe0 393b f862 abbe
00000090: 0f34 333b 89b4 25bd 0477 273e 920d b7bc
000000a0: 29e7 353e 4568 0dbe 0a41 79be 4e69 08bd
000000b0: 4ef7 b8be 1976 333e 4382 1fbe 9d8c 3bbe
000000c0: 26a5 e8bd 1500 56bd a77f 8ebe 0195 88bc
000000d0: 287a 3e3c 1239 b9be 1d79 b93c e4f4 abbd
000000e0: 7883 963e 93f2 203d f284 593d dafd 2e3e
000000f0: 380f 1e3e 6fbf 933e 754a 5cbe ee13 b5bd
00000100: cc78 6dbe 1495 d33c ae3a 80be 1925 99bd
00000110: 3717 22be 5d81 7cbb 4786 6cbe f865 23be
00000120: 8109 c3bd adaa 653c f75c 8e3c 0e61 20bd
00000130: fef8 683d 0fe6 2f3e b3f1 053d fb32 bf3d
00000140: 188f 14be 8df9 9a3d af26 5a3e d28b b73c
00000150: c36b 4b3d f554 bbbd fe6e 473e c4b8 da3d
00000160: 81ee a5bd 4fcb b73d 829a 8f3c 86c0 01be
00000170: 6825 913c 5437 123d 741a 2d3e cd1f 53be
00000180: f29c 38bc 9f39 5ebe 0bef bb3d 3515 033e
00000190: d0e0 3abe 965a 39be a45e acba fc48 49be
000001a0: 29f4 b83d 3a79 29be b706 4abe e2a5 333d
000001b0: e650 5ebe ae03 bebe cd63 3cbe bcfe 1ebe
000001c0: fd86 63be 9eea a5be 1738 ebba 639b c33d
000001d0: c5d7 62bc a6a5 e83b 4f80 ccbd e39f fa3d
000001e0: 6531 913e 5260 9fbc 340b 4cbe dacc 923d
000001f0: f5a3 d2bd 28a4 0cbd 133b 9bbd 7ac3 693e
00000200: 648f 803e 67b2 873e 75a2 3ebe fa3e 3c3e
00000210: 9dff 763c b3af e93d 3605 91be c381 613e
00000220: 238d a33e ec91 723b 1007 293e 1571 ac3e
00000230: da32 0f3e de0f a9bc 99ee 12bd 3906 153e
00000240: 535b a3bd 6322 203d 57cb fcbc 5dff 453d
00000250: ebf1 67be 0796 e1bd 4b21 c53d 7109 85ba
00000260: 9ac7 8e3d ef92 5a3e 93fb 5d3e 231f 0ebe
00000270: d4c8 f8bd 6c47 273e 8059 80bd 1b92 8ebd
00000280: 8fc8 a9bd e4c1 843e da69 1c3e 4926 1c3e
00000290: b6b0 843c 5480 9f3d 8fe9 b73d cba5 313d
000002a0: c4e7 883d e001 853d 5ab4 2bbe 6adf 383e
000002b0: ee3e 003e 4608 9dba 902c 883d fd5d debd
000002c0: 365f 103e 2662 22bd 0af1 643c 4dcd 8ebd
000002d0: 1580 f53d 6abe 133e 77cd bcbd 3abd a2bd
000002e0: 79f8 be3b c8f8 f9bd 3fe9 263d 441f 18bd
000002f0: 0eb8 ab3d 57d9 3bbd fb16 37bd ed08 dabc
00000300: ec4a e6bd 7843 44be 9336 f6bd 8c4c a3bd
00000310: 2987 e7bb 2788 c93d 39aa a4bc 7d18 ae3d
00000320: 7855 25bc 4325 e5bd 2c7d 2abe 983b e53b
00000330: 8655 b33d 71e0 d73d f637 18be 9d72 1d3e
00000340: cc2c 363e 61b4 7b3d 3989 1dbc b9df a83d
00000350: 64d3 8e3d 84ef 423c c7fa 923d c5a1 863c
00000360: 248d 833e d0ab 83be b284 22be dd16 5dbd
00000370: d58b ed3b 0697 c4be 1a51 113e 93b3 503d
00000380: 5ac4 23be f367 083e 5da2 373e 5c49 5abd
00000390: c643 143d 9b37 dbbe 66e5 a3be 5b83 7a3d
000003a0: f678 a1be 5ef4 10be 766a 40be 9754 6b3e
000003b0: ad2c 1d3e f855 173d 96db 953d 0113 803e
000003c0: db15 3a3d 3bc5 203e 2cc2 9b3e e217 963d
000003d0: 3cfd 2cbe 29a1 513d 143a 59be c2b9 ddbd
000003e0: a60e 79be f21c cbbd c1ee b7bd 9346 6fbd
000003f0: cf83 2f3e dda8 64be 4681 843d 19f9 563c

49 f4 [12]
0.5301542 0.30317464 -0.25416735 -0.4407049 1.3548468 -0.38983458 1.270401 0.5534282
1.4869273 -0.06941836 1.8978589 -1.06834
00000000: 30b8 073f b539 9b3e 3922 82be 13a4 e1be
00000010: 9f6b ad3f 6698 c7be 809c a23f 78ad 0d3f
00000020: a253 be3f 372b 8ebd 0aed f23f 5dbf 88bf

51 f4 [24, 12, 3, 3]
0.101389535 -0.044685926 0.06969491 0.2057058 0.13996653 0.0015130521 -0.09761948 0.0017404077
0.0737215 -0.27828327 -0.19619848 -0.19148387 -0.18386687 0.12759526 -0.28068894 -0.10791369
0.0708294 -0.14995562 -0.15377101 -0.18725522 -0.009543286 -0.07052664 0.14567365 -0.13335381
-0.21986377 0.29122227 0.10901798 0.1460162 -0.25304794 -0.059084464 0.09085292 -0.22662133
-0.16611882 0.105780356 -0.12218243 0.105304554 0.18495545 -0.123399064 0.08868439 0.32707548
-0.08214292 -0.02711598 0.15583949 0.004379706 0.05457966 -0.06060033 0.15576413 -0.065416545
0.018866995 0.100960515 -0.09961493 -0.15061918 -0.322733 -0.12957145 -0.19558015 -0.3578733
-0.10432258 -0.28460905 -0.2440724 -0.2585888 0.04774137 -0.165098 -0.17006621 -0.01845533
0.15293577 -0.19169007 -0.07452254 0.21584913 0.22248365 -0.07784949 0.002732166 0.29653922
-0.2385644 0.08412947 0.121853456 -0.0027437508 -0.18343791 -0.15435304 -0.064671576 -0.010112025
0.099843256 -0.14593749 0.07993063 -0.2743255 0.19687092 0.099872746 -0.18213291 -0.20290242
0.0037691102 -0.069629386 0.11855917 0.06481806 0.24070068 -0.32269686 -0.30121672 -0.12601632
-0.21705608 -0.16396429 0.07018904 0.023064906 0.067575246 0.1564395 -0.21491832 -0.048827607
0.106322326 -0.1514449 -0.35344896 0.02268223 -0.0069892043 -0.12267733 -0.19993298 0.17868485
0.035076957 0.26238972 0.16648977 0.1780668 0.16728564 0.23681599 0.119834095 0.208465
-0.06458161 0.1914557 0.14656742 -0.10201235 -0.10262397 -0.07239865 -0.058819667 0.046612486
0.068559565 -0.17727873 -0.20027 0.0033106024 -0.08930598 -0.11475336 -0.055520397 0.022416182
0.251605 -0.113732435 0.16679434 0.022825206 -0.05484661 0.22417934 -0.19267048 0.19146574
0.04372922 0.31549507 0.10766625 0.107005484 0.13801037 0.19595157 -0.15271105 -0.110668264
0.05306859 -0.061531927 -0.0050589284 0.10704477 0.012853694 0.11416007 0.074065 -0.0040606786
-0.10999618 -0.1633839 0.06587877 -0.16330652 0.14462508 -0.13480498 0.091462225 -0.25364277
0.02652147 -0.06977849 -0.15400487 0.050876766 -0.1706082 0.11840643 -0.13645856 -0.11473746
-0.12745562 -0.09011493 -0.11193893 0.061444663 0.13444483 -0.19935395 0.05292854 -0.14341669
0.13640359 -0.14987877 0.26047373 0.0022336503 -0.15696314 0.029425727 0.13869925 -0.24893004
0.19727613 -0.042094927 -0.0512775 0.0039140466 -0.25346977 -0.012504719 -0.12533444 0.03721022
0.07043744 -0.24124336 0.02517252 -0.115977764 0.040996406 0.25942966 -0.17792307 0.06113387
0.080166504 -0.2672164 0.06868237 -0.18568565 -0.014532186 -0.23074569 -0.23184116 -0.06971633
-0.10289946 -0.22134136 -0.17598632 0.110814914 0.14042906 0.0346121 -0.014302252 -0.18005687
-0.066333786 0.0770807 0.1603202 -0.23063765 0.0037990299 0.3129161 -0.0876756 0.23211715
0.18588 0.044332262 -0.08933942 0.09777076 0.14603902 -0.29438892 -0.21148376 0.13824815
-0.1482416 -0.07633076 -0.13265878 -0.10042154 0.09138165 -0.007079919 0.033806037 -0.06980376
0.2646815 0.07217419 -0.18239594 -0.104332805 0.20429112 0.018456604 -0.013596822 0.0897747
00000000: 51a5 cf3d 9708 37bd 34bc 8e3d 8ba4 523e
00000010: 6353 0f3e 9b51 c63a b9ec c7bd 641e e43a
00000020: 4cfb 963d 257b 8ebe 41e8 48be 5914 44be
00000030: 9947 3cbe 55a8 023e 76b6 8fbe da01 ddbd
00000040: 010f 913d f78d 19be 2676 1dbe d5bf 3fbe
00000050: 715b 1cbc 4570 90bd 792b 153e e78d 08be
00000060: f823 61be 161b 953e d244 df3d 4585 153e
00000070: 808f 81be 8d02 72bd 1911 ba3d 6c0f 68be
00000080: 0d1b 2abe 5fa3 d83d c83a fabd eaa9 d73d
00000090: f664 3d3e a6b8 fcbd 29a0 b53d 7076 a73e
000000a0: 8c3a a8bd 5522 debc 6394 1f3e a383 8f3b
000000b0: ec8e 5f3d 0d38 78bd a280 1f3e 1cf9 85bd
000000c0: f58e 9a3c 63c4 ce3d ea02 ccbd ea3b 1abe
000000d0: 433d a5be 61ae 04be 2a46 48be 2b3b b7be
000000e0: 14a7 d5bd 47b8 91be 1dee 79be c065 84be
000000f0: 748c 433d 730f 29be d625 2ebe a22f 97bc
00000100: 329b 1c3e 674a 44be 469f 98bd 8e07 5d3e
00000110: c1d2 633e 8e6f 9fbd 240e 333b fdd3 973e
00000120: 3a4a 74be 124c ac3d 4e8e f93d 80d0 33bb
00000130: 26d7 3bbe b90e 1ebe 8872 84bd e8ac 25bc
00000140: 9f7a cc3d a370 15be acb2 a33d 6474 8cbe
00000150: 8898 493e 158a cc3d 0d81 3abe a7c5 4fbe
00000160: 2d03 773b da99 8ebd 26cf f23d 55bf 843d
00000170: 3d7a 763e 8638 a5be 1439 9abe 6c0a 01be
00000180: f343 5ebe 41e6 27be 45bf 8f3d 9df2 bc3c
00000190: e464 8a3d ad31 203e 8c13 5cbe 75ff 47bd
000001a0: 85bf d93d 5f14 1bbe 43f7 b4be 16d0 b93c
000001b0: b205 e5bb 413e fbbd 3bbb 4cbe 29f9 363e
000001c0: dbac 0f3d f257 863e 4b7c 2a3e 2557 363e
000001d0: ed4c 2b3e e47f 723e 946b f53d d977 553e
000001e0: 5d43 84bd f70c 443e c515 163e daeb d0bd
000001f0: 842c d2bd be45 94bd e4ec 70bd bcec 3e3d
00000200: f568 8c3d 8e88 35be 9413 4dbe b1f6 583b
00000210: 0ee6 b6bd cf03 ebbd 5b69 63bd 24a2 b73c
00000220: 5fd2 803e 8dec e8bd 23cc 2a3e edfb ba3c
00000230: d7a6 60bd 458f 653e 694b 45be 980f 443e
00000240: 691d 333d 9288 a13e 1f80 dc3d b125 db3d
00000250: 9752 0d3e 87a7 483e 4960 1cbe 0ba6 e2bd
00000260: 735e 593d e708 7cbd 5ec5 a5bb 4a3a db3d
00000270: 4d98 523c c1cc e93d 64af 973d 710f 85bb
00000280: ad45 e1bd 1c4e 27be 73eb 863d d339 27be
00000290: 9918 143e 510a 0abe 8c50 bb3d 77dd 81be
000002a0: 8e43 d93c 06e8 8ebd 74b3 1dbe 2864 503d
000002b0: eab3 2ebe 127f f23d cbbb 0bbe 79fb eabd
000002c0: ba83 02be 2d8e b8bd 3d40 e5bd 66ad 7b3d
000002d0: e8ab 093e 7123 4cbe 99cb 583d d3db 12be
000002e0: 62ad 0b3e d279 19be d05c 853e 6f62 123b
000002f0: f2ba 20be 390e f13c 2d07 0e3e 84e7 7ebe
00000300: c102 4a3e bb6b 2cbd 5b08 52bd 6741 803b
00000310: cac6 81be 98e0 4cbc ac57 00be be69 183d
00000320: 8141 903d 8008 77be 9a36 ce3c c085 edbd
00000330: d9eb 273d f7d3 843e 7731 36be 8267 7a3d
00000340: 562e a43d 97d0 88be 58a9 8c3d 6124 3ebe
00000350: 6818 6ebc 9948 6cbe c567 6dbe 6fc7 8ebd
00000360: f4bc d2bd 4fa7 62be c235 34be eef2 e23d
00000370: a3cc 0f3e 6bc5 0d3d fe53 6abc d460 38be
00000380: 02da 87bd 7cdc 9d3d fa2a 243e 472c 6cbe
00000390: 25f9 783b 8a36 a03e 448f b3bd 1eb0 6d3e
000003a0: 5457 3e3e bf95 353d 96f7 b6bd 093c c83d
000003b0: 418b 153e 25ba 96be 338f 58be ec90 0d3e
000003c0: a5cc 17be 4d53 9cbd b4d7 07be cfa9 cdbd
000003d0: 4d26 bb3d aafe e7bb 3378 0a3d 46f5 8ebd
000003e0: 5584 873e 10d0 933d 00c6 3abe 70ac d5bd
000003f0: b131 513e 4e32 973c 34c5 5ebc ccdb b73d

52 f4 [24]
2.5101228 0.2297252 0.28200942 0.20530343 -0.44053748 -1.8917962 0.40514892 -0.76212555
0.7617802 1.098506 -1.1267568 1.2247363 0.44496366 0.35582563 -0.47092918 -0.18008505
-0.21513285 -1.284557 -1.4798108 2.4780385 -1.7991697 1.1837167 -0.3355847 -0.3360375
00000000: daa5 2040 153d 6b3e 8a63 903e 103b 523e
00000010: 218e e1be 6126 f2bf ae6f cf3e a91a 43bf
00000020: 0704 433f d89b 8c3f 9139 90bf 29c4 9c3f
00000030: 47d2 e33e c72e b63e a11d f1be 3768 38be
00000040: c94b 5cbe 5d6c a4bf 716a bdbf 2f98 1e40
00000050: 314b e6bf 0784 973f c2d1 abbe 1b0d acbe

fc_layers.1.bias f4 [192]
0.014146408 0.0467676 0.022921555 -0.016945057 0.006931641 -0.007902296 -0.036017906 0.028409597
0.0062444564 0.042502757 -0.022307176 0.03343697 0.029232085 0.00081154704 -0.022940831 -0.011165224
0.0440588 -0.046745766 -0.0031572166 -0.010513604 0.029551383 -0.008191166 -0.008893665 0.001086524
-0.025401529 0.023925884 0.04765961 -0.022088133 -0.0028871032 0.019450422 0.025996402 0.0179479
0.008228662 0.043731645 -0.005248263 0.02891642 0.021753756 0.04344347 -0.039773013 0.010787338
0.031527042 0.028863575 -0.01289612 0.01658111 0.007757496 0.033652235 0.012395566 -0.036770448
-0.004433643 0.040498067 -0.014034918 -0.042139325 -0.00092742185 -0.011030885 0.0080447495 0.004227552
-0.03414319 -0.030857245 0.05470781 -0.038954083 -0.032823272 -0.015836017 0.031500157 -0.006735486
-0.031183992 0.04873601 0.041520573 -0.04897328 -0.017910356 -0.037131876 -0.019566007 0.018099777
-0.035721958 -0.011672946 -0.026898524 0.01731595 0.029498253 -0.04669615 0.036679886 -0.013208658
-0.027954312 0.045985 0.032727793 0.00755468 -0.02855369 0.041559204 0.019971402 -0.02962892
0.009302126 0.017288256 0.044597596 -0.026560942 -0.0295265 0.046223693 0.052442417 -0.046273407
-0.018644748 0.021920992 -0.015818952 0.024382498 0.03240081 -0.01958868 0.03350767 -0.016819017
-0.030798282 0.004006336 -0.012144473 0.01993591 0.03319773 0.03681729 -0.015948286 0.016385088
0.04862704 0.0065048784 -0.02266568 0.024271352 -0.012829928 -0.01812363 0.010992564 -0.008177339
-0.014685599 -0.0048591965 -0.0005073101 0.049285006 0.019648148 0.027861297 0.041815657 0.020310216
0.030201565 -0.03303587 0.038958047 -0.010112683 -0.03276859 -0.029407991 -0.032634724 -0.036196187
-0.020102689 -0.003311893 -0.016438816 0.027209364 0.041033432 0.022080418 0.03366973 -0.04632084
0.012110317 0.046709318 -0.027250804 0.0075920615 -0.02349946 -0.004768227 -0.04672927 -0.03891142
-0.036184296 -0.035329804 0.04118724 0.035943225 0.0353011 0.035466183 -0.024767322 0.050440993
0.0349373 -0.03922863 -0.028396696 0.025367698 0.013664533 0.024039732 0.0072476277 0.007870942
-0.032688156 -0.0029590297 0.024970058 0.047606938 0.020073514 -0.009294092 -0.0222332 0.0373386
-0.026988978 0.035197355 0.045649067 -0.048201118 0.0031973 -0.036056526 0.023658413 -0.04030689
0.0457005 -0.024281526 -0.035221435 0.025205653 -0.0008390532 0.004042302 0.00707429 -0.017018957
00000000: 56c6 673c 628f 3f3d fcc5 bb3c 5cd0 8abc
00000010: d222 e33b a278 01bc 8387 13bd 3ebb e83c
00000020: 4c9e cc3b 5f17 2e3d 8abd b6bc 34f5 083d
00000030: 2078 ef3c 00be 543a 69ee bbbc 58ee 36bc
00000040: 0077 343d 7d78 3fbd 4ee9 4ebb 4041 2cbc
00000050: be15 f23c 3e34 06bc bcb6 11bc b269 8e3a
00000060: de16 d0bc 3700 c43c b936 433d 2cf2 b4bc
00000070: 8e35 3dbb 7e56 9f3c 68f6 d43c 7907 933c
00000080: 83d1 063c f41f 333d 9ff9 abbb 21e2 ec3c
00000090: ef34 b23c c8f1 313d 07e9 22bd 60bd 303c
000000a0: 8022 013d 4e73 ec3c 3f4a 53bc 1cd5 873c
000000b0: 9832 fe3b edd6 093d c616 4b3c 9c9c 16bd
000000c0: 1848 91bb 4de1 253d b6f2 65bc 499a 2cbd
000000d0: 3a1e 73ba e3ba 34bc 20ce 033c 4787 8a3b
000000e0: bbd9 0bbd 55c8 fcbc 4c15 603d 518e 1fbd
000000f0: b271 06bd 89ba 81bc 4f06 013d 5ab5 dcbb
00000100: 9275 ffbc 699f 473d 7a11 2a3d 3598 48bd
00000110: bdb8 92bc 9817 18bd e448 a0bc fc45 943c
00000120: 3051 12bd e23f 3fbc 4b5a dcbc 2eda 8d3c
00000130: 52a6 f13c 7644 3fbd a63d 163d 2169 58bc
00000140: 7100 e5bc c45a 3c3d 940d 063d 408d f73b
00000150: 6ee9 e9bc fc39 2a3d 119b a33c 59b8 f2bc
00000160: f267 183c 1aa0 8d3c f8ab 363d 5596 d9bc
00000170: 8fe1 f1bc 0e55 3d3d dccd 563d 2f89 3dbd
00000180: dfbc 98bc a793 b33c bf96 81bc cebd c73c
00000190: b6b6 043d 7078 a0bc 573f 093d 09c8 89bc
000001a0: ae4c fcbc 9547 833b 9df9 46bc a250 a33c
000001b0: 58fa 073d bacd 163d fba5 82bc 053a 863c
000001c0: 262d 473d e026 d53b 60ad b9bc b7d4 c63c
000001d0: 9e34 52bc 0278 94bc 281a 343c 3ffa 05bc
000001e0: de9b 70bc e539 9fbb 01fd 04ba 13df 493d
000001f0: 27f5 a03c 603d e43c e546 2b3d 9c61 a63c
00000200: 4669 f73c 9f50 07bd 7992 1f3d abaf 25bc
00000210: 5b38 06bd 07e9 f0bc fdab 05bd 7442 14bd
00000220: 65ae a4bc 580c 59bb b2aa 86bc 2ce6 de3c
00000230: ac12 283d fee1 b43c 45e9 093d ecba 3dbd
00000240: 5a6a 463c 4552 3f3d 143d dfbc d4c6 f83b
00000250: f181 c0bc ca3e 9cbb 3167 3fbd 9561 1fbd
00000260: fc35 14bd fcb5 10bd f4b3 283d 3439 133d
00000270: e397 103d fd44 113d d7e4 cabc 379b 4e3d
00000280: 6a1a 0f3d 33ae 20bd 30a0 e8bc ebcf cf3c
00000290: 35e1 5f3c f9ee c43c 827d ed3b 20f5 003c
000002a0: 04e4 05bd 48ec 41bb 028e cc3c 7eff 423d
000002b0: 3671 a43c 3f46 18bc 6622 b6bc 5cf0 183d
000002c0: fd17 ddbc 1a2b 103d 84fa 3a3d 896e 45bd
000002d0: cb89 513b 02b0 13bd 4acf c13c d618 25bd
000002e0: 7330 3b3d 0dea c6bc 5a44 10bd 167c ce3c
000002f0: e8f3 5bba 4975 843b 72cf e73b 576b 8bbc

fc_layers.1.weight f4 [192, 384]
0.037387542 0.04074172 -0.0068210005 0.009612785 0.04940977 -0.016847832 -0.051512707 0.039649636
0.008461017 -0.051467102 0.008863262 -0.034965143 0.030428216 0.044057153 0.051816456 0.014144043
0.038937602 0.036346532 -0.037135646 -0.0012166346 0.018728055 -0.050388914 -0.0454698 0.05172825
-0.02828369 0.04830366 -0.000782441 0.017490545 -0.011571669 -0.039925653 0.06275123 0.047111236
0.058561742 0.024663655 -0.0053045494 0.011349035 0.04786066 -0.0119834095 -0.03612659 0.009907236
0.06399587 0.017411914 -0.026535666 0.05103665 0.01678781 -0.0060033854 0.013364657 0.02711303
0.047860406 0.021298818 0.048191607 0.0048680734 0.009021821 0.0018331732 0.009854833 -0.034812775
-0.0117068365 0.025563218 0.05826506 0.023559317 0.009484902 0.04926062 0.016668055 0.03808226
0.019130249 -0.02330684 0.005825258 0.056968845 -0.020191992 -0.016625956 0.00520278 -0.0010663646
-0.0361696 0.0010198201 0.059321787 0.023289606 -0.0031716893 0.024109975 0.0057334453 0.048542675
0.009154946 -0.0386139 -0.02718251 -0.04761769 0.021160804 -0.016956044 -0.019138874 -0.0054767183
0.048311874 -0.006021099 -0.02205141 0.0060526817 -0.00797924 0.078046836 0.026771722 0.013382331
-0.041185122 -0.039455187 -0.035928097 -0.006769699 -0.036355976 -0.0072925463 0.002034162 0.040331252
-0.012231463 -0.021796616 0.0008463533 0.045602508 0.03306763 0.026699614 0.040141895 -0.033947717
0.025740234 -0.019930871 -0.033512138 0.008768341 -0.030414037 0.040182486 0.059015594 0.0069671953
-0.0132952295 -0.006149348 0.026806824 -0.01791369 0.046508268 0.019249814 0.062805615 -0.01457107
0.018244695 0.021242222 -0.0036859068 0.052554138 -0.031233238 0.04234717 0.070163734 0.0045277453
-0.038044482 -0.043318093 0.019338949 0.017588072 -0.03591545 -0.016351614 0.04665864 0.003825386
0.032186583 -0.006039737 0.05686428 0.009319049 -0.04837685 0.023772342 0.01836443 0.014290266
0.03819269 0.041863516 -0.015387268 0.029582832 -0.02462953 -0.011199352 0.012958558 -0.021878574
-0.03457028 -0.020446658 0.011151088 0.04974844 -0.026740406 0.05675409 -0.033734407 0.022791196
0.00197116 0.048096664 0.038537372 0.018436966 -0.028878326 0.02221151 2.0866424e-05 -0.008779403
-0.016496291 0.04853712 0.014097247 0.0135795055 -0.05603286 -0.016055167 0.047117293 -0.03993362
0.051035404 -0.010327045 -0.012979216 0.024027873 -0.022061592 -0.0118427 -0.026318572 0.020631293
0.010884434 -0.037241213 0.035109136 -0.05209691 -0.027836902 -0.0048141354 0.050701104 0.02186722
0.013615195 -0.021654159 -0.045180403 0.029578464 -0.022986144 -0.057027154 0.023003925 -0.007895198
-0.018247053 -0.004953347 -0.034426607 0.049757306 0.024524864 0.056917004 0.05419732 -0.014527137
-0.02980932 0.03020967 -0.018089335 0.024839438 -0.052629046 -0.012534741 0.001627962 -0.04656057
-0.008018086 0.026619602 -0.04074437 -0.026465917 -0.011999802 -0.0068050665 0.025233021 -0.026457371
-0.004776926 0.0020351552 -0.034420744 -0.037881657 0.035667084 0.0043353005 -0.023299158 -0.042649973
0.029737582 -0.04031791 -0.042479813 0.043807164 0.044913594 -0.019539766 -0.0305271 0.05046706
-0.049645193 0.04428082 0.029743811 -0.03811821 0.008136149 -0.006288589 0.005767468 -0.010259274
00000000: ae23 193d cae0 263d b382 dfbb f17e 1d3c
00000010: e661 4a3d 7704 8abc fdfe 52bd a867 223d
00000020: 14a0 0a3c 2bcf 52bd 3737 113c 9c37 0fbd
00000030: 9844 f93c 4675 343d 7e3d 543d 6bbc 673c
00000040: 097d 1f3d 1ae0 143d 8c1b 18bd 7c77 9fba
00000050: 946b 993c 9b64 4ebd 8a3e 3abd 00e1 533d
00000060: 32b3 e7bc 0fda 453d ba1c 4dba 5548 8f3c
00000070: 1997 3dbc 1589 23bd b883 803d b6f7 403d
00000080: 70de 6f3d 6f0b ca3c c9d1 adbb 4ef1 393c
00000090: 8a09 443d 1056 44bc 7af9 13bd f651 223c
000000a0: 4410 833d 6ea3 8e3c 5361 d9bc ce0b 513d
000000b0: 9786 893c 0cb8 c4bb 6ff7 5a3c 251c de3c
000000c0: 4609 443d dc7a ae3c 9064 453d 5c84 9f3b
000000d0: 43d0 133c 1647 f03a 2a76 213c d797 0ebd
000000e0: 08ce 3fbc f469 d13c 58a7 6e3d 78ff c03c
000000f0: 9066 1b3c 81c5 493d 728b 883c 25fc 1b3d
00000100: 0ab7 9c3c fced bebc cee1 be3b 2a58 693d
00000110: ad69 a5bc 2833 88bc 157c aa3b 42c5 8bba
00000120: 9326 14bd 7cab 853a 67fb 723d d8c9 be3c
00000130: 1edc 4fbb 4882 c53c a0df bb3b afd4 463d
00000140: a0fe 153c 9c29 1ebd dbad debc c40a 43bd
00000150: 6c59 ad3c 67e7 8abc 21c9 9cbc 0b76 b3bb
00000160: ace2 453d a44c c5bb 29a5 b4bc 9355 c63b
00000170: 5cbb 02bc 05d7 9f3d 5f50 db3c 9041 5b3c
00000180: bbb1 28bd c39b 21bd 5729 13bd 5ad4 ddbb
00000190: 01ea 14bd 50f6 eebb 934f 053b 6232 253d
000001a0: 7966 48bc d18e b2bc cfdd 5d3a b2c9 3a3d
000001b0: ec71 073d 26b9 da3c d46b 243d c30c 0bbd
000001c0: 2fdd d23c 1146 a3bc 0644 09bd 16a9 0f3c
000001d0: dc26 f9bc 6496 243d 56ba 713d 124d e43b
000001e0: 3cd4 59bc 7880 c9bb fc99 db3c bbbf 92bc
000001f0: 747f 3e3d c9b1 9d3c 3ba0 803d 7fbb 6ebc
00000200: e675 953c 2b04 ae3c 418f 71bb 0243 573d
00000210: d9dc ffbc 3a74 2d3d 01b2 8f3d 7b5d 943b
00000220: 88d4 1bbd 506e 31bd b76c 9e3c dc14 903c
00000230: 141c 13bd d2f3 85bc 211d 3f3d 54b3 7a3b
00000240: 14d6 033d fce8 c5bb 85ea 683d edae 183c
00000250: ce26 46bd 37be c23c 0071 963c b821 6a3c
00000260: f06f 1c3d 1479 2b3d e11a 7cbc b257 f23c
00000270: dec3 c9bc 7d7d 37bc 2250 543c b23a b3bc
00000280: 9199 0dbd c07f a7bc 0eb3 363c 05c5 4b3d
00000290: b20e dbbc fa76 683d 172d 0abd 9ab4 ba3c
000002a0: 942e 013b 0201 453d 5dd9 1d3d 1f09 973c
000002b0: 3d92 ecbc eaf4 b53c 4e0a af37 7cd7 0fbc
000002c0: 3b23 87bc dcce 463d 24f8 663c 937c 5e3c
000002d0: b682 65bd 2086 83bc 10fe 403d 6f91 23bd
000002e0: 800a 513d c432 29bc c7a6 54bc 1ad6 c43c
000002f0: 83ba b4bc e207 42bc 0c9a d7bc f502 a93c
00000300: a054 323c 3e8a 18bd 99ce 0f3d 9263 55bd
00000310: 370a e4bc e5bf 9dbb f6ab 4f3d e222 b33c
00000320: 4412 5f3c 1064 b1bc 160f 39bd 894e f23c
00000330: 704d bcbc 4e95 69bd ba72 bc3c dc5a 01bc
00000340: d87a 95bc b04f a2bb ea02 0dbd 51ce 4b3d
00000350: 5ee8 c83c ce21 693d 02fe 5d3d 3b03 6ebc
00000360: ad32 f4bc 457a f73c 1630 94bc 147c cb3c
00000370: 8e91 57bd 845e 4dbc 5761 d53a 4cb6 3ebd
00000380: 4a5e 03bc 5a11 da3c 92e3 26bd 0dcf d8bc
00000390: d19a 44bc 09fd debb 7bb5 ce3c 21bd d8bc
000003a0: c287 9cbb 3d60 053b c4fc 0cbd cc29 1bbd
000003b0: a617 123d 230f 8e3b e0dd bebc bdb1 2ebd
000003c0: 3b9c f33c 6524 25bd 50ff 2dbd 246f 333d
000003d0: 51f7 373d dc11 a0bc f813 fabc 8cb6 4e3d
000003e0: c258 4bbd ce5f 353d 4ba9 f33c d721 1cbd
000003f0: 7b4d 053c 8210 cebb 07fd bc3b 8416 28bc

fc_layers.3.bias f4 [96]
0.0369247 -0.052945144 0.058524683 -0.026143601 -0.021020133 -0.072228424 0.06041703 0.00035661488
-0.071120106 -0.0062479386 -0.026085164 -0.002350697 -0.016501006 0.040404726 -0.0016847232 0.012461201
-0.0357454 0.0008600405 0.06729336 -0.014247228 0.055138633 0.08430422 -0.049983624 0.07258224
-0.008295119 -0.061350837 0.0018163496 0.04827434 0.038730588 -0.044284556 -0.05371551 -0.028851463
-0.02141826 0.014197781 -0.053314842 -0.059568036 -0.06365491 0.029742755 -0.019610627 -0.06464
-0.013249145 0.011332906 -0.03316592 -0.06133801 -0.010218426 0.031421542 -0.045393478 -0.020252649
0.03540109 -0.00656877 -0.021600021 0.045412842 -0.07110955 0.0031882913 0.02414493 0.0020678735
0.058302782 -0.039101593 0.04789096 -0.037568644 -0.028110329 0.05231903 -0.04757874 0.021127896
0.034813527 0.07467986 -0.011779119 -0.049670737 -0.040341645 0.011798306 -0.058586605 0.03029134
-0.0064847604 -0.040488724 0.045589503 0.036560655 -0.034252964 0.00560666 -0.059410505 -0.036080223
0.054431476 0.01702921 0.007896629 0.03045078 -0.0041829534 0.060702443 0.052248236 0.060918603
0.008403121 -0.0004503623 0.032881558 -0.045480963 -0.032535695 -0.010622832 0.046970874 -0.03501401
00000000: 5b3e 173d 02dd 58bd 94b7 6f3d 1b2b d6bc
00000010: 6a32 acbc 7fec 93bd d977 773d 0af8 ba39
00000020: 6ba7 91bd 82bb ccbb 8eb0 d5bc 270e 1abb
00000030: 1e2d 87bc 6d7f 253d eed1 dcba 112a 4c3c
00000040: c569 12bd 5774 613a 1ad1 893d 356d 69bc
00000050: 0cd9 613d b1a7 ac3d a1bb 4cbd ffa5 943d
00000060: 40e8 07bc 044b 7bbd 9412 ee3a 50bb 453d
00000070: f7a3 1e3d b963 35bd cb04 5cbd e759 ecbc
00000080: 5975 afbc cf9d 683c aa60 5abd 9dfd 73bd
00000090: 815d 82bd 14a7 f33c 77a6 a0bc fa61 84bd
000000a0: f112 59bc a7ad 393c fdd8 07bd 913d 7bbd
000000b0: 2f6b 27bc e0b3 003d 83ee 39bd e2e8 a5bc
000000c0: bc00 113d d63e d7bb 87f2 b0bc d102 3a3d
000000d0: e2a1 91bd a7f2 503b 97cb c53c 2985 073b
000000e0: e6ce 6e3d fe28 20bd 5029 443d 94e1 19bd
000000f0: a247 e6bc 7b4c 563d ede1 42bd 6914 ad3c
00000100: a198 0e3d c1f1 983d 35fd 40bc 8b73 4bbd
00000110: 483d 25bd af4d 413c 82f8 6fbd 8b25 f83c
00000120: 1d7e d4bb 81d7 25bd 0fbc 3a3d a0c0 153d
00000130: d64c 0cbd 13b8 b73b 6e58 73bd dbc8 13bd
00000140: 8af3 5e3d d880 8b3c dd60 013c ea73 f93c
00000150: 2811 89bb 20a3 783d 3f02 563d c985 793d
00000160: 3ead 093c 9b1e ecb9 d0ae 063d 3f4a 3abd
00000170: 2644 05bd 630b 2ebc 8864 403d da6a 0fbd

fc_layers.3.weight f4 [96, 192]
0.04938233 0.055667244 -0.027980546 -0.07596223 -0.04292243 0.010533902 0.06355575 -0.015518339
0.058943033 0.02117703 -0.04692228 0.048809864 0.02003998 -0.05560967 -0.053714946 -0.03599883
-0.06948259 0.00031971434 -0.024480455 -0.008710657 -0.038424697 -0.016832437 -0.013016814 -0.040121134
-0.061976347 -0.00022839756 0.035396505 0.0147756515 0.048881717 -0.033586334 -0.015875883 -0.025215715
0.0341731 -0.015898166 -0.049848102 0.009009877 0.011177069 0.046095982 0.060007054 0.05551719
-0.01838789 0.04339783 -0.02675084 0.0067761852 -0.06598277 0.006626826 -0.038105886 0.041000504
0.03925976 -0.056554914 -0.0121184625 0.036295474 -0.055918004 -0.043309707 -0.015084111 0.04237971
0.015373951 0.03673242 0.06321425 -0.015253965 0.0047693807 0.06825398 0.05046689 -0.038519
0.047942366 -0.07198093 0.01286396 0.066634335 0.04952483 -0.032455925 -0.062684014 -0.043557353
-0.026245037 0.03853242 0.050688814 -0.06193335 0.020797983 -0.05105243 -0.054167755 -0.020934477
0.00153511 -0.06260662 0.023563424 -6.202948e-05 -0.058753207 -0.037894037 0.006460543 0.040655553
-0.048680034 0.056790818 0.0147166215 0.0048951763 -0.05274673 0.04947472 0.048462257 0.040030286
0.041592523 0.035512954 0.027928807 -0.023880357 -0.07765228 -0.05060383 -0.062583745 -0.058090683
0.01661402 0.04272395 -0.06943497 0.009806448 0.0016618995 0.03791918 0.034983918 0.066253796
-0.022456985 -0.009975675 0.032164488 0.05157421 0.031666182 0.012342138 -0.050577153 0.008914213
0.034344073 0.05896451 0.058422785 -0.010989341 0.017588802 0.04903531 -0.067645445 0.012564048
0.052139945 0.010302688 0.010511445 0.041762948 0.0075439056 -0.010760573 0.004547161 -0.07076712
0.01746827 -0.045683272 -0.021775167 -0.05745314 0.060982324 0.062037952 -0.045375116 -0.016000727
0.02202438 0.068926804 0.016871661 0.03542866 0.058424786 -0.023375917 -0.044298526 0.046573423
0.0656392 0.02181362 0.0033978524 -0.063294835 -0.03489388 -0.017671485 -0.02170059 0.08726437
0.086825185 0.048018977 -0.042132985 -0.07146045 -0.039689466 -0.03236155 0.03790972 0.05500112
-0.0062253005 -0.04615828 -0.012519187 -0.047048487 0.05119427 -0.016569665 0.06940352 0.004920923
-0.032333523 -0.06823626 0.046274874 0.032738537 -0.0016041168 -0.003368905 0.009284039 0.06402631
0.073907726 0.027452564 0.06422829 0.016810697 -0.014578874 -0.056297112 0.051049735 0.01106874
0.04037404 0.005018228 -0.052383848 0.05602815 -0.06537683 -0.06583224 0.044046734 0.0013038551
0.0041384036 0.06504401 -0.06847883 -0.0042986763 0.072046876 0.070250235 -0.065974616 0.037051804
0.01515851 0.030342918 -0.0524932 0.047899067 0.040373273 -0.05536049 -0.012213438 -0.005826435
-0.05387381 -0.06945024 -0.03789854 -0.06167258 -0.037356216 0.055892084 0.014311835 -0.023217702
0.0036304109 0.051717024 -0.017339762 -0.059760112 0.04116322 0.028962476 0.042650063 -0.015632536
-0.052251548 -0.039642356 0.068451256 0.07207593 -0.04275845 0.0013771015 0.053414557 0.05818647
-0.053635973 -0.017921539 -0.06457745 0.019307176 -0.03886421 -0.0047955224 0.06283869 -0.016608028
0.069212645 -0.028627848 0.011034701 0.024954151 0.056374945 -0.0050434107 -0.06463217 -0.058184788
00000000: 2045 4a3d 5603 643d 7537 e5bc 1692 9bbd
00000010: 6ecf 2fbd 6396 2c3c 8429 823d a240 7ebc
00000020: 406e 713d 737b ad3c 9431 40bd daec 473d
00000030: e22a a43c f7c6 63bd 3404 5cbd 8273 13bd
00000040: e34c 8ebd 559f a739 3c8b c8bc 25b7 0ebc
00000050: 3763 1dbd 2ee4 89bc 7a44 55bc 0f56 24bd
00000060: e9da 7dbd 017e 6fb9 edfb 103d 9315 723c
00000070: 3238 483d d391 09bd 240e 82bc 3091 cebc
00000080: 18f9 0b3d df3c 82bc 862d 4cbd 2a9e 133c
00000090: 0620 373c 24cf 3c3d f5c9 753d fe65 633d
000000a0: 33a2 96bc ecc1 313d 9424 dbbc c30a de3b
000000b0: f921 87bd d825 d93b eb14 1cbd 25f0 273d
000000c0: d8ce 203d 20a6 67bd 848c 46bc 90aa 143d
000000d0: 470a 65bd 8565 31bd 5923 77bc 5996 2d3d
000000e0: 06e3 7b3c bc74 163d 7976 813d c4eb 79bc
000000f0: 7748 9c3b bec8 8b3d 5fb6 4e3d 19c6 1dbd
00000100: 375f 443d bd6a 93bd 5cc3 523c 9577 883d
00000110: 8cda 4a3d 81f0 04bd 7a60 80bd 3269 32bd
00000120: d5ff d6bc 2cd4 1d3d 139f 4f3d d3ad 7dbd
00000130: 8860 aa3c 5a1c 51bd 02df 5dbd c87e abbc
00000140: be35 c93a e637 80bd 1508 c13c d315 82b8
00000150: 34a7 70bd c736 1bbd f6b2 d33b 7086 263d
00000160: b764 47bd 7d9d 683d fc1d 713c b767 a03b
00000170: f50c 58bd 01a6 4a3d 5c80 463d ccf6 233d
00000180: ec5c 2a3d 0876 113d f4ca e43c bda0 c3bc
00000190: 2908 9fbd f645 4fbd e82b 80bd 7ff0 6dbd
000001a0: 201a 883c 4fff 2e3d ec33 8ebd 39ab 203c
000001b0: 18d4 d93a 2451 1b3d 4c4b 0f3d 12b0 873d
000001c0: b6f7 b7bc 0371 23bc e9be 033d 7b3f 533d
000001d0: 66b4 013d ae36 4a3c fd29 4fbd eb0c 123c
000001e0: 5fac 0c3d c584 713d bb4c 6f3d a30c 34bc
000001f0: 6416 903c 40d9 483d b289 8abd 70d9 4d3c
00000200: b290 553d 9bcc 283c 3238 2c3c a00f 2b3d
00000210: de32 f73b 1d4d 30bc 5a00 953b 5aee 90bd
00000220: 9e19 8f3c 621e 3bbd d661 b2bc fc53 6bbd
00000230: 9ac8 793d 821b 7e3d 42db 39bd f513 83bc
00000240: 796c b43c 7f29 8d3d 7036 8a3c a51d 113d
00000250: d44e 6f3d da7e bfbc 5f72 35bd c6c3 3e3d
00000260: d86d 863d 7ab2 b23c 81ae 5e3b b9a0 81bd
00000270: e3ec 0ebd cac3 90bc 70c5 b1bc a9b7 b23d
00000280: 67d1 b13d 8caf 443d a393 2cbd db59 92bd
00000290: 6c91 22bd 8b8d 04bd 3947 1b3d db48 613d
000002a0: 9bfd cbbb 7710 3dbd 471d 4dbc eab5 40bd
000002b0: 15b1 513d 1bbd 87bc 6f23 8e3d b23f a13b
000002c0: 2870 04bd 74bf 8bbd b98a 3d3d d818 063d
000002d0: 3a41 d2ba d9c8 5cbb 151c 183c 3a20 833d
000002e0: ef5c 973d 33e4 e03c 1f8a 833d 96b6 893c
000002f0: 3bdc 6ebc cd97 66bd 8719 513d a959 353c
00000300: 405f 253d f36f a43b 7290 56bd c67d 653d
00000310: 4ae4 85bd 0ed3 86bd 596a 343d 1ee6 aa3a
00000320: 729b 873b cb35 853d a13e 8cbd e9db 8cbb
00000330: 508d 933d 5bdf 8f3d b31d 87bd a2c3 173d
00000340: 665b 783c b691 f83c 1c03 57bd d031 443d
00000350: 725e 253d aec1 62bd df1a 48bc aeeb bebb
00000360: c9aa 5cbd ed3b 8ebd 803b 1bbd 639c 7cbd
00000370: d502 19bd 19ef 643d 307c 6a3c 0d33 bebc
00000380: 30ec 6d3b 3bd5 533d 1e0c 8ebc 05c7 74bd
00000390: c49a 283d b742 ed3c d5b1 2e3d ce0f 80bc
000003a0: b805 56bd 0660 22bd 2c30 8c3d 8c9c 933d
000003b0: 7c23 2fbd dc7f b43a 39c9 5a3d f054 6e3d
000003c0: 65b1 5bbd 31d0 92bc 2f41 84bd 152a 9e3c
000003d0: 1430 1fbd c223 9dbb 92b1 803d 8f0d 88bc
000003e0: 5cbf 8d3d f384 eabc e4ca 343c a66c cc3c
000003f0: 6ae9 663d 3243 a5bb df5d 84bd 2c53 6ebd

fc_layers.5.bias f4 [10]
0.020735214 -0.011331027 0.05399411 0.12533176 0.06986713 0.09304694 0.05243417 0.008953152
-0.041609235 0.03606641
00000000: e5dc a93c c6a5 39bc ee28 5d3d f856 003e
00000010: 7f16 8f3d 658f be3d 36c5 563d 3eb0 123c
00000020: 726e 2abd 5fba 133d

fc_layers.5.weight f4 [10, 96]
-0.021825612 -0.017270515 0.07530857 -0.08502546 0.045989074 0.10342671 -0.029761964 0.15621659
0.021312684 0.047932185 -0.18950273 0.16953446 -0.047520436 0.070152305 0.14337915 0.013784722
-0.11162779 -0.059925634 -0.14463493 0.19246207 -0.09678968 -0.122383304 -0.012353066 0.043561295
0.04590774 -0.012784923 -0.064034246 -0.10562905 0.039400186 -0.04120954 0.024499772 -0.20544153
0.10689513 -0.12436353 0.017468972 -0.046260163 0.029751211 0.035449535 0.20371307 0.070081785
-0.000494153 0.0994804 0.063739955 0.042932514 0.050944135 -0.044920545 -0.13811639 -0.09920211
0.13957165 0.13797443 -0.04313481 -0.03205739 -0.019451847 -0.09938979 0.123864934 0.08312179
0.14542517 -0.031224199 -0.014039242 0.061800964 -0.15376614 -0.1718728 0.030837059 0.10220976
-0.064887114 -0.026104674 -0.04333903 -0.10475686 0.022386242 -0.043165233 -0.14524114 -0.028229674
0.019649053 0.04665844 0.06689703 0.05141791 0.11493416 0.007912228 -0.08473864 -0.044418443
0.22963428 0.15856712 0.010554662 0.036669914 -0.11285043 0.17137977 -0.1432864 -0.020778928
0.22264488 0.05656053 -0.06435896 -0.026086338 -0.08120472 0.0860341 -0.0669407 0.10877756
-0.10328194 -0.09086215 0.1384393 0.21149461 -0.066664666 0.16563793 0.07894128 0.10953707
0.03033681 0.025269393 -0.010181311 -0.12457169 -0.014932443 0.013692263 0.110590205 -0.077633366
0.30325168 -0.08595132 -0.1663024 -0.17617847 -0.07161897 -0.15841907 -0.08072545 0.06953786
0.038946796 0.038186084 0.0049768365 -0.1486223 0.0026160395 0.17760704 -0.10583896 -0.24016711
-0.06856606 0.040565174 0.07730231 0.098488666 0.11672811 0.03269453 0.103471905 0.10431171
0.0832576 -0.01621843 -0.029415317 0.028474746 0.10472399 0.13820474 0.0665921 0.0013291427
-0.20408355 -0.16298942 0.04402507 -0.15098293 0.026010403 -0.021169972 0.03640436 0.08598941
-0.1547321 -0.05060572 -0.020743053 -0.008522931 -0.014146115 -0.10146795 -0.083161086 -0.17530923
0.10977026 0.028833773 -0.12479675 0.06564518 0.05031176 -0.16805692 -0.11705547 0.044534877
0.034851264 0.034586824 -0.018783687 0.08303034 0.15118194 0.25388357 0.046147138 -0.04745401
-0.011666579 -0.13930956 -0.002780101 -0.13355176 -0.16074188 -0.055257123 0.10930442 0.054048926
-0.08940622 -0.084702924 -0.09189612 0.06684161 -0.11894512 -0.014485969 -0.14536689 -0.024483223
-0.030699397 0.0051401956 -0.14038515 -0.053447537 0.07421443 0.16903551 0.0913173 0.11378753
-0.09296593 -0.045172766 -0.10645996 -0.054559287 -0.08883866 -0.06412393 0.1220156 0.071830064
-0.099772446 0.09424204 -0.12970349 0.2087658 0.10387153 -0.10021127 -0.058857914 0.014037273
-0.033823337 0.07044652 -0.034112662 0.16694357 -0.11142811 -0.041706495 0.06865175 0.05303684
0.0991614 -0.15652458 0.031221155 -0.029067926 0.03234722 0.007921766 -0.046148956 0.016245304
0.11540142 -0.046914134 0.00051839143 0.03000558 0.05389414 -0.15351944 -0.073478706 -0.10232596
0.01144507 -0.013937805 0.062315494 -0.035165705 -0.049545616 -0.11413428 0.17782624 0.058326386
0.20315239 0.048899673 0.027090468 0.009866343 0.20715128 -0.039516605 0.0783428 0.24263541
00000000: a0cb b2bc e57a 8dbc 613b 9a3d d421 aebd
00000010: 0a5f 3c3d 62d1 d33d 5dcf f3bc 3ef7 1f3e
00000020: f097 ae3c 8a54 443d 010d 42be 719a 2d3e
00000030: caa4 42bd 03ac 8f3d fcd1 123e 51d9 613c
00000040: 1c9d e4bd 9574 75bd 2e1b 14be c714 453e
00000050: ab39 c6bd 19a4 fabd 8464 4abc 546d 323d
00000060: c109 3c3d db77 51bc 6324 83bd 0b54 d8bd
00000070: 1762 213d 56cb 28bd bfb3 c83c 445f 52be
00000080: d5eb da3d 4eb2 febd 171b 8f3c 4c7b 3dbd
00000090: d0b8 f33c 8833 113d 299a 503e 0a87 8f3d
000000a0: 0c8a 01ba 61bc cb3d 188a 823d 01da 2f3d
000000b0: ccaa 503d 9bfe 37bd 626e 0dbe 7a2a cbbd
000000c0: dfeb 0e3e 2b49 0d3e 20ae 30bd 9c4e 03bd
000000d0: 7b59 9fbc e08c cbbd e6ac fd3d c23b aa3d
000000e0: 56ea 143e e4c9 ffbc d904 66bc 0223 7d3d
000000f0: df74 1dbe 6cff 2fbe 009e fc3c 5a53 d13d
00000100: 89e3 84bd 78d9 d5bc 4484 31bd c48a d6bd
00000110: 5a63 b73c 07ce 30bd 18ba 14be eb41 e7bc
00000120: 0df7 a03c ec1c 3f3d 4f01 893d 969b 523d
00000130: 9a62 eb3d 4aa2 013c 748b adbd 1df0 35bd
00000140: 4025 6b3e 6b5f 223e 76ed 2c3c 3133 163d
00000150: 201e e7bd 2e7e 2f3e acb9 12be 9238 aabc
00000160: 05fd 633e 04ac 673d a1ce 83bd 04b3 d5bc
00000170: a94e a6bd a532 b03d 3518 89bd c5c6 de3d
00000180: 7b85 d3bd ef15 babd 08c3 0d3e 0b92 583e
00000190: 7c87 88bd fd9c 293e f7ab a13d f954 e03d
000001a0: e784 f83c c201 cf3c 83cf 26bc 711f ffbd
000001b0: 35a7 74bc 8355 603c 1e7d e23d 3efe 9ebd
000001c0: ce43 9b3e 3f07 b0bd 2d4b 2abe 2168 34be
000001d0: f7ac 92bd 9c38 22be 6253 a5bd de69 8e3d
000001e0: ad86 1f3d 0369 1c3d bb14 a33b 7230 18be
000001f0: dc71 2b3b 9fde 353e 19c2 d8bd 5eee 75be
00000200: 5d6c 8cbd ab27 263d ac50 9e3d 6db4 c93d
00000210: 260f ef3d b3ea 053d 14e9 d33d 61a1 d53d
00000220: f682 aa3d 83dc 84bc 64f8 f0bc df43 e93c
00000230: 8879 d63d 8b85 0d3e 7061 883d a136 ae3a
00000240: 47fb 50be b3e6 26be a253 343d 459b 1abe
00000250: c513 d53c a66c adbc bd1c 153d 371b b03d
00000260: 1772 1ebe f247 4fbd 56ed a9bc c3a3 0bbc
00000270: 1bc5 67bc 6ece cfbd 5c50 aabd 4384 33be
00000280: 3bcf e03d ce34 ec3c 7095 ffbd fb70 863d
00000290: b413 4e3d 1d17 2cbe c7ba efbd 346a 363d
000002a0: 33c0 0e3d eaaa 0d3d 3fe0 99bc d00b aa3d
000002b0: 70cf 1a3e 07fd 813e c804 3d3d 235f 42bd
000002c0: 2e25 3fbc 2aa7 0ebe 5b32 36bb cbc1 08be
000002d0: 8599 24be 4b55 62bd ffda df3d 6862 5d3d
000002e0: 9c1a b7bd ba78 adbd 0834 bcbd 41e4 883d
000002f0: 8099 f3bd 8f56 6dbc 0fdb 14be 0a91 c8bc
00000300: 4d7d fbbc 166f a83b 20c1 0fbe ceeb 5abd
00000310: bcfd 973d a517 2d3e 9104 bb3d 7009 e93d
00000320: ec64 bebd 1407 39bd ae07 dabd 8f79 5fbd
00000330: 0bf1 b5bd 6853 83bd 51e3 f93d a41b 933d
00000340: 7f55 ccbd f801 c13d fed0 04be b4c6 553e
00000350: 99ba d43d 913b cdbd ff14 71bd 97fc 653c
00000360: 578a 0abd 4446 903d b8b9 0bbd 41f3 2a3e
00000370: 6c34 e4bd 6ed4 2abd 4a99 8c3d 283d 593d
00000380: 2215 cb3d fb47 20be 82c3 ff3c dc1f eebc
00000390: 857e 043d 4bca 013c b006 3dbd df14 853c
000003a0: 9457 ec3d 0929 40bd a9e4 073a 43ce f53c
000003b0: 1ac0 5c3d 3334 1dbe 017c 96bd 4690 d1bd
000003c0: 1a84 3b3c 645b 64bc 883e 7f3d ea09 10bd
000003d0: 58f0 4abd 3cbf e9bd 1518 363e a6e7 6e3d
000003e0: 2e07 503e 064b 483d d4ec dd3c 71a6 213c
000003f0: 771f 543e 2adc 21bd 3172 a03d 6b75 783e
