5.MyModel/my_network.pth (torch, 395679 bytes, 21 tensors)

conv_layers.0.weight f4 [6, 3, 3, 3]
000000 1b a4 f9 3c 77 57 1c be ba 6b c1 bd e3 3c 96 bd
       0.03047376 -0.1526774 -0.09444375 -0.07335832
000010 87 53 b9 bd b2 57 79 3e 7b af bd 3d 44 8b 3a 3e
       -0.09049135 0.2434986 0.09261986 0.18217188
000020 39 58 b3 bd c5 1e b3 3d db 3b 78 bd 7a 40 df bd
       -0.087570615 0.08746103 -0.060603958 -0.1090097
000030 db 46 fe bd e6 19 9a 3b 24 67 29 3e 1c ef da 3c
       -0.12415858 0.0047027944 0.16543251 0.026725344
000040 0d 37 b2 3d fb 7c ed bc 12 93 42 3e 43 7a 8f be
       0.08701906 -0.02899026 0.19001415 -0.28022966
000050 00 12 95 bd cf 1f 96 bd c7 80 d8 3d 38 12 34 3e
       -0.07278824 -0.07330286 0.10571437 0.17585075
000060 ec 26 29 be 8e 2b 2b 3d 19 bf 91 3d 29 b2 86 be
       -0.16518754 0.041789584 0.07116527 -0.263078
000070 17 77 88 be de ce 65 be 23 77 5e bd af cf ab bc
       -0.26653358 -0.22442195 -0.054312836 -0.020973055
000080 b5 06 28 bd 6c 5e 5f 3e 91 5f 4b 3e bc 1f 7f 3d
       -0.04102202 0.21813363 0.19860674 0.062286124
000090 d9 60 0f bc 07 80 75 3d 2f 85 bf 3d c2 22 c7 3d
       -0.008751118 0.05993655 0.09351575 0.097234264
0000a0 22 fb 85 3c b2 f4 06 3c 63 cb 56 be 49 27 00 be
       0.016355101 0.008237051 -0.20976023 -0.12514986
0000b0 71 76 d8 bb ac e1 2a 3e 2c 2d 54 3d 27 f2 e5 3c
       -0.006605916 0.1668765 0.05180089 0.028069569
0000c0 76 3c f6 3d 88 91 e6 3d df 18 79 3e 8c fd 29 be
       0.12023251 0.11258227 0.24325894 -0.16600627
0000d0 50 1c fd bd 2a a3 47 3d 6a 0f 6d 3d 31 44 f5 3b
       -0.12358916 0.04873959 0.057876028 0.0074849357
0000e0 ec 77 8f bd 51 ad 8b bd 82 4c 30 3d 44 cd 69 3d
       -0.07005295 -0.06820167 0.043041714 0.057080522
0000f0 8c 47 61 be d9 76 79 3e 03 36 de 3d f8 13 16 be
       -0.21999949 0.24361743 0.10850146 -0.14656055
000100 c4 bc 13 3d 96 53 9d 3d d7 b8 6a be 87 58 f9 3d
       0.036068693 0.076819584 -0.22922073 0.121750884
000110 f5 c3 8b bd 24 21 92 be b2 e3 93 bd 03 5a 75 3e
       -0.06824485 -0.2854091 -0.07221164 0.23960118
000120 ab 21 ba bd 12 2c 83 bd 1c 58 d6 3d a7 9b 57 be
       -0.09088453 -0.0640489 0.10466024 -0.2105547
000130 12 ff 1b 3e 30 d4 82 3e 54 85 74 be 48 de a7 3d
       0.1523402 0.2555251 -0.23878986 0.08196694
000140 26 ac 25 3e 09 f9 0e 3c 2b 67 bd bd 23 76 95 3e
       0.1617895 0.008726367 -0.09248193 0.29191694
000150 a1 13 cd bd b3 83 3d be ed a1 89 bd b1 77 5e 3d
       -0.100135095 -0.1850727 -0.06720338 0.054313365
000160 f4 ed 44 3e eb 2c 7b be b6 e6 a2 bd 4f c6 de bc
       0.19231397 -0.24528854 -0.07954161 -0.02719417
000170 30 6a 82 3e 33 f2 b2 bd 24 5d 3c be 86 4e 5e 3e
       0.2547164 -0.08737602 -0.18394905 0.21709642
000180 38 f2 22 3e c9 0e 5e bb cf 06 60 be 02 b2 08 3e
       0.15912712 -0.0033883324 -0.21877597 0.13349155
000190 44 31 38 be 1d f0 e9 bb 36 b9 e5 bd 6b f2 a0 3d
       -0.17987543 -0.0071392194 -0.11216967 0.078587376
0001a0 db a1 02 3c e1 9b 39 3e 69 8b 94 3d 3c 39 4e be
       0.00797316 0.1812587 0.07253153 -0.2013902
0001b0 ad 6b 7c 3e 13 a0 1c bd 51 61 97 bd f6 66 02 39
       0.2465045 -0.038238596 -0.073916085 0.00012436122
0001c0 6c 31 9f bd 8a 5f 2f be 54 7e 38 3e 49 88 36 3d
       -0.07773098 -0.17126289 0.1801694 0.044563565
0001d0 4f 00 e0 3d 67 d8 2e 3e da c2 bb 3e de 31 a0 bd
       0.10937559 0.17074738 0.36672097 -0.078220114
0001e0 91 7a 64 be 49 24 da bd 17 ae ee bd b4 f7 a7 be
       -0.2231238 -0.10651452 -0.11654299 -0.3280617
0001f0 6c 88 a1 3d c4 e0 00 be a7 e5 59 be 70 e5 f6 3d
       0.078873485 -0.12585741 -0.21279012 0.120554805
000200 30 e6 1f 3e ca 22 df 3d 7b 0e df bd 68 81 2e bd
       0.15615153 0.10895307 -0.10891434 -0.04260388
000210 52 72 73 3d d4 04 c5 bd 65 62 2b 3d b1 04 29 be
       0.059435196 -0.096200615 0.041841883 -0.16505696
000220 49 4b 6f 3c 38 27 84 3d 86 ec 49 3e ae c3 dd 3d
       0.014605352 0.06452793 0.19719133 0.108283386
000230 b4 82 17 3e a4 a1 3a be e4 d3 5b 3e 95 8f b3 3c
       0.14795953 -0.18225724 0.21467549 0.021919051
000240 e3 1f 07 be 3d 16 c4 bd b1 5f 74 bd 9b 7d 04 3e
       -0.13195758 -0.09574554 -0.05966157 0.1293854
000250 9c 3c 86 bd fb 30 db bd 33 66 84 3d 8e 83 b9 3d
       -0.06554529 -0.10702702 0.064648055 0.09058295
000260 2e 39 2d be 86 69 18 be 8b f8 0a be b3 31 0d 3c
       -0.16916344 -0.14884004 -0.13571374 0.008617806
000270 4f c9 64 3e d8 8f 01 be 33 2e 3c bd ef c9 16 3e
       0.22342418 -0.12652528 -0.045942497 0.14725469
000280 97 cc 10 3e 4d 96 7d 3e
       0.14140545 0.24764366

conv_layers.1.weight f4 [6]
000000 91 3d 80 3f eb da 7e 3f 3b 8d 85 3f 80 7d 6d 3f
       1.0018789 0.9955279 1.0433725 0.9276962
000010 09 3a 7e 3f cf 7b 7f 3f
       0.99307305 0.9979829

conv_layers.1.bias f4 [6]
000000 6a 79 07 3e 1e b5 48 3e b2 92 0a bd 3a 46 00 3e
       0.1322991 0.1960034 -0.033831306 0.1252679
000010 f3 9a 40 3d 61 c8 8f 3d
       0.04702277 0.07020641

conv_layers.1.running_mean f4 [6]
000000 59 90 4c bb a4 20 49 3c 4e 0e df ba 90 90 7a 3b
       -0.0031213968 0.012275849 -0.0017017813 0.0038233139
000010 e7 38 b6 3a 88 f6 9d bc
       0.0013902456 -0.019282594

conv_layers.1.running_var f4 [6]
000000 b4 78 15 3e c0 19 52 3e 95 d3 24 3f 3c 80 30 3e
       0.14596826 0.20517635 0.6438535 0.17236418
000010 5b 70 37 3e 10 6a e6 3e
       0.17913954 0.45002794

conv_layers.4.weight f4 [12, 6, 3, 3]
000000 3b 95 72 3d 06 ef 67 bd 18 1a cc 3d 2d 4c c6 3d
       0.05922435 -0.056624435 0.099659145 0.09682498
000010 71 d8 59 bd 2f fb fa bc 69 d7 a9 bc f4 6c 71 bd
       -0.05318493 -0.030637352 -0.020732598 -0.058941796
000020 1a 6c aa bd 4d 8e 1e 3d 5f 85 5f bd e9 8c 1c 3d
       -0.083214 0.038709927 -0.054570552 0.03822032
000030 53 db 66 3d 75 cc b4 bd 9a 2e 69 3d 98 5a b1 3d
       0.056361508 -0.088280596 0.05692921 0.086598575
000040 92 bb 16 be ef 65 54 bc 66 10 51 bd 79 2d 9c 3c
       -0.1471999 -0.012963756 -0.05104103 0.019064652
000050 9f 6e 81 bc 27 35 2f 3e 8c dd a2 bc fd 67 85 3e
       -0.015799819 0.1711012 -0.019881032 0.260559
000060 7d b6 9f 3d 3c cf 03 3d fc 53 06 3e 0d 90 2b bd
       0.07798479 0.032180056 0.13117975 -0.041885424
000070 8a 78 94 3c 4f ff 21 3d 1b dd d6 3c 14 05 6f 3d
       0.018123884 0.039550122 0.026228478 0.058354452
000080 5b f4 88 3c d7 e3 04 be 6f db a0 3a 46 51 14 be
       0.01671808 -0.12977539 0.0012272428 -0.14484128
000090 03 15 9b 3a 9c 66 8f bc 75 ec 90 3d df 69 1e bc
       0.0011831824 -0.017504983 0.070763506 -0.009668796
0000a0 17 6b 9d 3d 38 bf 74 bd 29 b4 d7 bd 98 19 6c bc
       0.076864414 -0.059752673 -0.1053241 -0.014410399
0000b0 af 11 20 be 29 4e 9b 3d db 09 8a bd fb 4d a2 bd
       -0.15631746 0.07583267 -0.06740161 -0.0792503
0000c0 96 54 49 bd fd 31 b9 bc c6 a2 f6 bd 3b 65 ec bb
       -0.049152933 -0.022606844 -0.12042765 -0.007214216
0000d0 a2 d6 a4 3b 99 4a 20 be 19 fc 68 3c 7d 01 58 bd
       0.005030469 -0.15653457 0.014220261 -0.052735794
0000e0 df 11 3d 3e 38 2d ca 3c bb 9e 08 3d 7b d1 db 3d
       0.18463849 0.024679765 0.033354502 0.107333146
0000f0 77 8c c6 3d 76 98 39 3e 5d 5c 0a be ae 76 63 bd
       0.0969476 0.18124565 -0.13511796 -0.055533104
000100 e2 26 15 be 21 e4 84 3c b7 13 21 be 0f 60 40 bd
       -0.14565614 0.016222062 -0.15730177 -0.04696661
000110 d3 9c cb bd 19 98 1e bb 8f 8e 14 be 54 41 cd bd
       -0.09942021 -0.0024199544 -0.14507507 -0.10022226
000120 ae ff 74 bd e6 3f 10 3c e0 d4 32 3c 6c 76 c9 bc
       -0.059814148 0.008804297 0.010915011 -0.0245926
000130 74 53 12 3d 2b f5 dc 3d 82 41 a8 3c 78 2d 70 3d
       0.03572412 0.107889496 0.020539049 0.058637112
000140 51 9d ba bd 83 ac 42 3d 51 04 09 3e 70 90 66 3c
       -0.09112037 0.0475278 0.13380553 0.0140725225
000150 bc 87 ff 3c d6 51 6b bd 7a 85 fa 3d 11 60 89 3d
       0.031192653 -0.05745109 0.1223249 0.06707776
000160 ff 6f 50 bd 31 e0 66 3d c4 63 34 3c 6c fd a2 bd
       -0.050888058 0.05636615 0.011010114 -0.07958493
000170 d2 53 36 3c ea ab b7 3c 40 72 d9 3d 78 9a 04 be
       0.011128383 0.022420842 0.106174946 -0.1294955
000180 88 e7 e7 bb 5e 93 0b be 64 13 6c 3d 61 a9 a4 3d
       -0.007077161 -0.13630435 0.05763568 0.08040119
000190 f0 bf ea bd c0 d5 e8 bd 54 86 58 ba e4 d8 fc bd
       -0.114623904 -0.113688946 -0.00082597625 -0.12346056
0001a0 16 55 68 3d fd e2 d4 bd 39 c7 fd bd de aa e1 3c
       0.05672177 -0.10394857 -0.12391514 0.027547296
0001b0 ef e9 d0 bd 38 8f 32 be 69 08 b1 bd fd 68 95 bd
       -0.10200869 -0.17437446 -0.08644182 -0.072954156
0001c0 99 cf d5 bd 0e ea 1b be fe 09 5d ba 9e d0 37 3d
       -0.10439987 -0.15226004 -0.000843197 0.044876687
0001d0 f1 2a d5 bb 3f 9f 5a 3b 46 2c 40 bd 0a 84 6b 3d
       -0.006505363 0.0033359078 -0.046917222 0.05749897
0001e0 a8 70 08 3e b1 c4 15 bc 3b be bf bd 4f f3 09 3d
       0.13324225 -0.009141133 -0.093624555 0.033679303
0001f0 2d f1 45 bd aa 29 84 bc 6c df 11 bd d7 ab db 3d
       -0.048325706 -0.016133148 -0.035613462 0.10726135
000200 af 9e f1 3d 6e 08 ff 3d 6d 24 b3 bd cf e5 b0 3d
       0.117978446 0.1245278 -0.08747182 0.086375825
000210 ba 1b e8 3b 42 99 5b 3d 23 47 08 be 8d e9 d3 3d
       0.0070833834 0.053612955 -0.13308387 0.10347281
000220 13 b1 19 3e 61 f2 e3 3a 7d d6 9e 3d d1 0b 22 3e
       0.15008955 0.001739096 0.07755754 0.1582482
000230 e4 90 86 3d c3 de 1e bc 05 13 8a bc 5b 0a 8c 3d
       0.065706044 -0.009696665 -0.016854772 0.06837913
000240 44 82 19 bd 0f 7b 96 3c 02 8e 6d bc b3 0f ba 3c
       -0.037477747 0.018369226 -0.014499189 0.022712564
000250 59 f6 d9 bd 98 fc 53 bd 04 3f 39 3d 9d 08 fa b9
       -0.1064269 -0.051754564 0.045226112 -0.00047690133
000260 1b 2c 06 3d b8 65 cd 3d c0 99 d0 3d cc 8d 85 bd
       0.032756906 0.10029167 0.101855755 -0.06521186
000270 61 c9 69 bd d5 31 9d 3d 67 39 f1 bc d6 f9 05 bd
       -0.057076816 0.0767552 -0.029446317 -0.032708965
000280 52 8c 1f bd 23 82 f9 3d 3a b3 f2 3d 63 4a f2 3d
       -0.03895218 0.12183025 0.11850591 0.118305944
000290 cb e3 4d 3c c7 7d 77 3d 38 af 8e 3d f9 d2 09 3d
       0.012566517 0.060422685 0.06967014 0.033648465
0002a0 1e 6e 54 3d bc 61 4e 3d 98 36 05 be f6 6d 0f 3e
       0.05186283 0.050386176 -0.13009107 0.1400679
0002b0 59 fe c6 3d 0c a9 73 ba a5 4b 53 3d cf 84 ac bd
       0.09716482 -0.00092949043 0.051585812 -0.08423769
0002c0 06 04 e0 3d 9f f6 fb bc 92 9e 31 3c 66 94 5d bd
       0.109382674 -0.030757247 0.010841029 -0.054096602
0002d0 57 77 be 3d 6c 3f e5 3d 7c 7a 92 bd f2 83 7c bd
       0.09300106 0.111937374 -0.07152268 -0.06164927
0002e0 13 29 94 3b 6e ef c1 bd 92 7e 01 3d 9a 0a ec bc
       0.004521498 -0.09469496 0.031614847 -0.028813649
0002f0 78 39 85 3d 16 bd 11 bd d9 0b 0e bd 5e 28 a9 bc
       0.06505102 -0.035580717 -0.034679268 -0.020649131
000300 ea aa b2 bd 52 44 18 be ec 04 bf bd 54 62 7d bd
       -0.087240055 -0.14869812 -0.09327111 -0.06186135
000310 43 a0 b3 bb ab 5a 9c 3d e7 80 7f bc 82 11 87 3d
       -0.005481751 0.07634481 -0.015594698 0.06595136
000320 4f 45 00 bc 16 c7 b1 bd 2c 45 04 be 69 d8 b1 3b
       -0.007829024 -0.08680551 -0.12917012 0.0054274094
000330 ec 21 8b 3d bc 7b a7 3d eb 30 ec bd 0c 4e f4 3d
       0.067935795 0.08177897 -0.11532768 0.11928949
000340 29 56 0d 3e 96 47 43 3d 21 71 f4 bb 68 04 83 3d
       0.13802399 0.04767569 -0.007459775 0.06397325
000350 da 9d 5d 3d 93 3c 17 3c dc 0f 64 3d 0f e7 50 3c
       0.054105617 0.009230751 0.055679187 0.012750401
000360 db 9c e8 3d 18 d3 e8 bd 4a af 8f bd d8 77 c3 bc
       0.11358043 -0.11368388 -0.070158556 -0.023860857
000370 96 04 52 3b d2 ce 2d be 03 7a 80 3d 10 84 b8 3c
       0.003204619 -0.16973427 0.06273272 0.02252391
000380 e7 c9 90 bd 6d 32 71 3d 84 5a a2 3d 7d fd c0 bc
       -0.0706976 0.05888598 0.07927421 -0.023558373
000390 3a 15 83 3c 20 d0 41 be 1f e7 10 be 6c 7b dd 3c
       0.016001333 -0.1892705 -0.14150666 0.027036391
0003a0 95 c2 0e be 06 28 80 bd 17 1e aa bd 14 0f d0 3d
       -0.13941415 -0.06257634 -0.083065204 0.10159126
0003b0 ce f5 8a 3d 50 cc 85 3c c8 7d 04 3d e4 76 e2 3d
       0.06785165 0.016332775 0.032346517 0.11057833
0003c0 4a 85 a4 3c ae 23 8e 3d 4f b5 09 3e 17 b3 04 3d
       0.020083088 0.06940399 0.1344807 0.032397356
0003d0 31 f1 98 bd 1d 56 b9 3c a5 0d c0 bd dc 07 44 bd
       -0.074678786 0.02262407 -0.093776025 -0.047859058
0003e0 e8 31 dc bd 39 93 33 bd 0e 9e 22 bd 05 8c d3 bc
       -0.10751706 -0.043841574 -0.039701514 -0.025823602
0003f0 d6 2c 9b 3d 41 29 ca bd 8a 4c ea 3c 87 0f be 3b
       0.07576911 -0.0987115 0.02860095 0.005800191

conv_layers.5.weight f4 [12]
000000 fc 6f 83 3f 77 24 82 3f c0 a1 81 3f 3c 3c 72 3f
       1.026855 1.0167378 1.0127487 0.9462316
000010 23 a5 83 3f 29 c2 6f 3f 60 5d 84 3f c6 fb 75 3f
       1.0284771 0.9365564 1.0340996 0.960873
000020 5b b5 85 3f 4e 86 75 3f ba 24 88 3f 19 4f 74 3f
       1.044597 0.9590806 1.0636208 0.95433193

conv_layers.5.bias f4 [12]
000000 fe ed 51 3d ca 8f c3 3c be 85 aa bb a4 db a2 3c
       0.051252358 0.023872275 -0.0052039316 0.019880123
000010 7e 09 95 3d fa 8b 2c bd c2 58 8e bc 60 53 c8 3c
       0.07277201 -0.04212568 -0.017376307 0.024453819
000020 84 57 30 3c f4 d3 92 3c 22 1f 28 3b 8b ab 51 3d
       0.010763053 0.017923333 0.0025653322 0.051188987

conv_layers.5.running_mean f4 [12]
000000 85 31 54 be 94 a2 33 be d8 91 ef 3d 9e f4 b6 3e
       -0.20722015 -0.17542487 0.11697739 0.35733503
000010 89 16 11 bf 29 20 4e 3e 3a d4 5b bf 4c bb a8 be
       -0.5667501 0.20129456 -0.8587071 -0.32955396
000020 cc 1c 53 bf 5c 50 31 3d 86 1c aa bf 7e c3 2f 3f
       -0.82465816 0.043289527 -1.3289955 0.6865767

conv_layers.5.running_var f4 [12]
000000 9d 25 4a 3e 54 ca d0 3e f1 da 67 3e 2e f6 09 3f
       0.19740911 0.40779364 0.22642113 0.53891265
000010 32 a7 53 3e ad 81 96 3e f1 70 f3 3e 3e 79 b7 3e
       0.20669249 0.2939581 0.47547105 0.35834688
000020 c6 5a ae 3e 95 5f 67 3e 8d 65 0e 3f 97 5f af 3e
       0.3405363 0.22595055 0.55623704 0.34252617

conv_layers.8.weight f4 [24, 12, 3, 3]
000000 94 5f 14 3d 64 c9 82 bc a1 fb cb 3c cd 83 96 3d
       0.036223963 -0.015965171 0.02490026 0.07349358
000010 af d3 4c 3d 70 b5 0d 3a 34 db 0e bd 97 00 23 3a
       0.050006565 0.00054057594 -0.034877017 0.00062180444
000020 98 c4 d7 3c a8 9e cb bd ef 8e 8f bd d1 1b 8c bd
       0.02633886 -0.09942371 -0.07009684 -0.06841243
000030 0a 89 86 bd 08 b9 3a 3d 46 61 cd bd b9 eb 1d bd
       -0.06569107 0.045586616 -0.10028319 -0.03855488
000040 a8 4d cf 3c e5 71 5b bd 42 07 61 bd ba 03 89 bd
       0.025305584 -0.053575415 -0.054938562 -0.06690164
000050 3f 73 5f bb d0 6a ce bc be 2d 55 3d 5d 26 43 bd
       -0.0034095792 -0.025197417 0.052045576 -0.047644008
000060 cd df a0 bd 53 16 d5 3d 6d 89 1f 3d 13 ae 55 3d
       -0.078551866 0.10404649 0.03894942 0.052167963
000070 b2 27 b9 bd a5 ed ac bc 3f f4 04 3d 98 d1 a5 bd
       -0.090407744 -0.021109411 0.032459494 -0.080966175
000080 1f 19 73 bd 83 cc 1a 3d 39 cd 32 bd 43 1a 1a 3d
       -0.05935013 0.037792694 -0.043652747 0.0376227
000090 f2 54 87 3d 03 95 34 bd d9 c7 01 3d 2c 52 ef 3d
       0.06607999 -0.04408742 0.03168473 0.11685595
0000a0 6f 6a f0 bc db b9 1e bc 2d 0e 64 3d a4 18 cd 3a
       -0.029347626 -0.009687866 0.05567758 0.0015647602
0000b0 60 be 9f 3c 6c 5d b1 bc f1 f1 63 3d 06 76 bf bc
       0.019499958 -0.021650992 0.055650655 -0.023371708
0000c0 2a e1 dc 3b db be 13 3d c2 c6 11 bd 7d 6a 5c bd
       0.006740709 0.036070686 -0.03558994 -0.053812493
0000d0 c3 24 ec bd 60 9d 3d bd 1d 1b 8f bd 88 ed 02 be
       -0.11530449 -0.046292663 -0.06987593 -0.12785923
0000e0 63 aa 18 bd 92 3f d0 bd 71 96 b2 bd 94 35 bd bd
       -0.03727187 -0.10168375 -0.08720101 -0.09238735
0000f0 b7 ba 8b 3c b1 9a 71 bd ef df 78 bd 63 0f d8 bb
       0.017056806 -0.058985416 -0.060760435 -0.006593631
000100 5a ce 5f 3d 71 42 8c bd c9 1c da bc cc ef 9d 3d
       0.05464015 -0.0684861 -0.026625054 0.07711753
000110 8b ca a2 3d 89 d9 e3 bc 51 e3 7f 3a 45 fa d8 3d
       0.07948788 -0.02781369 0.0009761351 0.1059461
000120 b6 8e ae bd e0 3a f6 3c fb 51 32 3d 8a 7c 80 ba
       -0.08523314 0.03005737 0.043535214 -0.000980274
000130 b0 38 86 bd 4e e1 61 bd d9 47 bd bc 50 c4 6c bb
       -0.06553781 -0.055146508 -0.023105549 -0.0036127754
000140 4c 1c 12 3d 96 90 55 bd db f0 e9 3c 4e b9 c8 bd
       0.035671517 -0.05213984 0.028557232 -0.09800969
000150 e5 0c 90 3d 58 27 12 3d 3e 44 85 bd af 76 94 bd
       0.070337094 0.035682052 -0.06507157 -0.072491996
000160 b7 80 b0 3a 8a ca cb bc d7 7f 2d 3d 9a b5 bd 3c
       0.0013466094 -0.024876852 0.042358246 0.023157883
000170 de 1e b0 3d fd 1d ec bd 6f 66 dc bd 84 69 38 bd
       0.085996374 -0.11529157 -0.10761725 -0.045022503
000180 e1 d1 9e bd f8 f1 6f bd dc 6d cd 3c 3d 03 07 3c
       -0.07754875 -0.05858037 0.0250768 0.008240518
000190 73 c7 c5 3c f4 ee 64 3d 71 41 9d bd 97 e8 8e bc
       0.024142956 0.055891946 -0.076784976 -0.017444892
0001a0 8d 97 1b 3d d3 9f 5d bd 29 4f 01 be cb c5 04 3c
       0.037986327 -0.0541075 -0.12627853 0.008103798
0001b0 c6 28 2c bb f2 dc 3c bd 44 e6 99 bd 2a 8b 89 3d
       -0.002626942 -0.046109147 -0.07514623 0.067159966
0001c0 62 01 58 3c d3 f9 c9 3d 09 28 80 3d 60 11 89 3d
       0.013183923 0.09862103 0.06257636 0.06692767
0001d0 de c4 80 3d 56 4a b6 3d 62 7c 38 3d 90 77 a0 3d
       0.062875494 0.08900897 0.045040496 0.07835305
0001e0 21 d9 c6 bc c2 5f 93 3d 61 a4 61 3d 92 0c 1d bd
       -0.024273457 0.07195999 0.055088405 -0.038342066
0001f0 9e fd 1d bd bf ea de bc 65 1b b5 bc 56 85 8f 3c
       -0.038571946 -0.027211545 -0.02210779 0.017519634
000200 ab 18 d3 3c 14 76 88 bd ae 28 9a bd 3b 18 a3 3a
       0.025768599 -0.066631466 -0.0752729 0.0012443134
000210 ce 7c 09 bd fd a9 30 bd d0 f2 aa bc 31 0a 0a 3c
       -0.03356629 -0.043130863 -0.020867735 0.008425281
000220 9e ac c1 3d a1 17 2f bd 0e 64 80 3d 00 8f 0c 3c
       0.09456752 -0.042747144 0.06269084 0.008579016
000230 b7 df a8 bc 31 90 ac 3d 23 4f 94 bd bc 61 93 3d
       -0.020614488 0.0842594 -0.07241657 0.07196376
000240 a9 a4 86 3c a1 da f2 3d db c0 25 3d 70 bc 24 3d
       0.016435938 0.118581064 0.040467124 0.04021877
000250 eb 77 54 3d b3 d5 96 3d ac 19 6b bd fe 5f 2a bd
       0.051872175 0.07364979 -0.05739753 -0.04159545
000260 3a 66 a3 3c 47 75 bd bc 8b 39 f9 ba ec cb 24 3d
       0.019946206 -0.023127211 -0.0019014342 0.040233538
000270 a4 4e 9e 3b 2a c0 2f 3d 37 0c e4 3c f2 0b c8 ba
       0.004831152 0.04290787 0.027837856 -0.0015262349
000280 1d 57 29 bd 01 88 7b bd 96 d7 ca 3c 82 69 7b bd
       -0.041342843 -0.061409 0.024761003 -0.061379917
000290 e0 a6 5e 3d a1 88 4f bd 9c ce 0c 3d 2d 3e c3 bd
       0.054358363 -0.05066741 0.034376726 -0.095333435
0002a0 02 52 23 3c 75 d9 d6 bc 97 17 6d bd 91 a6 9c 3c
       0.009968283 -0.026226738 -0.057883825 0.019122394
0002b0 9a 53 83 bd b8 49 36 3d 54 14 52 bd b9 a3 30 bd
       -0.0641243 0.044503897 -0.051288918 -0.043124888
0002c0 23 38 44 bd 9f bb 0a bd c8 54 2c bd 7e 30 bd 3c
       -0.0479051 -0.033870336 -0.04207304 0.023094412
0002d0 b0 fa 4e 3d 2a 74 99 bd d6 f7 a2 3c a1 ca 5c bd
       0.050532043 -0.0749286 0.019893568 -0.05390418
0002e0 aa fe 51 3d 6e bd 66 bd 44 80 c8 3d 20 14 5c 3a
       0.051268257 -0.056332998 0.0979009 0.0008395333
0002f0 7d a5 71 bd 73 34 35 3c 6b 87 55 3d 7f 9d bf bd
       -0.058995713 0.011059868 0.052131098 -0.09356212
000300 b7 da 97 3d 76 9c 81 bc 70 e2 9d bc ab d2 c0 3a
       0.074147634 -0.015821677 -0.019273013 0.0014711221
000310 16 1c c3 bd 5a 02 9a bb 26 f4 40 bd 62 24 65 3c
       -0.09526841 -0.0046999874 -0.047107838 0.013985725
000320 de e0 d8 3c c8 b2 b9 bd 72 03 1b 3c 8c 8c 32 bd
       0.026474413 -0.09067303 0.009461271 -0.043591067
000330 26 75 7c 3c 86 b2 c7 3d 0d f5 88 bd 84 3b bc 3c
       0.01540879 0.097508475 -0.06687365 0.022977598
000340 99 d5 f6 3c f6 b0 cd bd 78 79 d3 3c ba ee 8e bd
       0.030131148 -0.10043518 0.025814757 -0.06979127
000350 ca fa b2 bb 23 9e b1 bd 02 76 b2 bd 77 a8 d6 bc
       -0.0054620253 -0.0867274 -0.087139145 -0.026203377
000360 a2 e5 39 bd b8 ef c7 bd ab f7 9e bd 6d 32 48 3d
       -0.04538501 -0.097625196 -0.07762083 0.048876215
000370 94 b2 7d 3d 8b 1e 7a 3c d0 b4 ce bb f4 a4 a2 bd
       0.061937883 0.015266071 -0.0063081756 -0.079416186
000380 fd ac ef bc cc 40 0b 3d fb d0 90 3d 6d 55 d0 bd
       -0.029257292 0.033997342 0.0707111 -0.10172544
000390 07 a0 db 3a e2 53 0d 3e cd 64 1e bd 8c ab d1 3d
       0.0016756066 0.1380153 -0.03867035 0.10237798
0003a0 84 e7 a7 3d 2a 2e a0 3c 4b 66 21 bd ad a1 30 3d
       0.08198455 0.019553263 -0.039404195 0.043122936
0003b0 8e ea 83 3d be f5 04 be 37 08 bf bd ee c1 79 3d
       0.06441222 -0.12984368 -0.09327739 0.06097596
0003c0 e2 e7 85 bd f6 e5 09 bd ec a8 6f bd a1 6b 35 bd
       -0.06538369 -0.033666573 -0.058510706 -0.044292096
0003d0 cc 16 25 3d e5 a5 4c bb 5f 4b 74 3c a0 36 fc bc
       0.040304944 -0.003122681 0.014910548 -0.030787766
0003e0 d5 15 ef 3d 9b 63 02 3d d9 c1 a4 bd 89 7c 3c bd
       0.11674086 0.031833272 -0.08044786 -0.046017203
0003f0 f7 88 b8 3d bd 5f 05 3c cb 82 c4 bb 9b 2f 22 3d
       0.09010499 0.008140502 -0.005997037 0.03959618

conv_layers.9.weight f4 [24]
000000 a6 98 8d 3f 64 cf 8f 3f ba bd 91 3f 66 e8 8c 3f
       1.106221 1.1235166 1.1386025 1.1008422
000010 8e 22 8e 3f 20 bc 89 3f 5d 11 92 3f 1f d5 8a 3f
       1.1104295 1.0760536 1.1411549 1.0846289
000020 ef 89 8e 3f 48 9e 8a 3f f5 b6 8f 3f a6 38 8e 3f
       1.1135844 1.0829554 1.1227709 1.1111038
000030 0a 6f 8c 3f 47 53 8b 3f 5b 04 8e 3f b8 85 8a 3f
       1.0971386 1.0884789 1.1095079 1.0822058
000040 53 a1 8c 3f d4 02 94 3f b0 b5 90 3f 0d 3c 8f 3f
       1.0986732 1.1563363 1.1305447 1.1190201
000050 27 e1 8a 3f fb 33 8d 3f 19 26 8b 3f 05 c8 8c 3f
       1.0849961 1.1031488 1.0871001 1.0998541

conv_layers.9.bias f4 [24]
000000 73 63 e0 3c 6c fa 30 3d 70 0c 1d 3d 5c 62 bb 3c
       0.027391171 0.04320757 0.03834194 0.02287405
000010 60 bc 11 3d 50 20 7f bc a6 60 84 bc 36 72 de 3c
       0.03558004 -0.015571669 -0.016159367 0.02715407
000020 5f c4 33 3d f1 e5 5a bb e5 35 e2 3c a0 e1 f9 3b
       0.043888446 -0.0033401216 0.02761359 0.0076257735
000030 ac 96 ab 3b cd c5 5e 3c 0f f5 a8 3c d7 05 28 3c
       0.0052364673 0.013596964 0.020624666 0.010255299
000040 54 a3 44 3d 73 46 39 3d 2f 4b 4d 3c f8 2e 8c 3d
       0.048007324 0.0452332 0.012530132 0.06844896
000050 38 16 2c bc 98 66 10 3d e9 a2 93 3b ce 52 0c 3d
       -0.010503344 0.03525409 0.0045055044 0.034258656

conv_layers.9.running_mean f4 [24]
000000 a2 13 63 bf ac 92 8f bd 7c 1a dc bd 77 19 bd bd
       -0.8870183 -0.07010397 -0.10747239 -0.09233373
000010 be b4 21 3e 19 f5 40 3f b1 0a 39 be a8 5d 82 3e
       0.15791604 0.7537399 -0.18070485 0.2546208
000020 05 6d 7d be f4 8d fb be 35 90 d2 3e 71 44 d8 be
       -0.24748619 -0.4913174 0.41125646 -0.42239717
000030 65 d5 3c be 0a 85 02 be 60 ab 59 3e 7e 44 ab 3d
       -0.18440779 -0.12746063 0.2125678 0.08362673
000040 73 16 ec 3d f2 79 da 3e af 29 15 3f c1 6b 54 bf
       0.11527719 0.42671162 0.5826673 -0.8297692
000050 96 02 57 3f 2b e5 dd be 58 5c f1 3d c0 22 3c 3e
       0.8398832 -0.43338904 0.11785191 0.18372631

conv_layers.9.running_var f4 [24]
000000 10 f1 1f 3e 60 97 36 3e e1 1e 81 3e 07 f1 9e 3e
       0.15619302 0.17831182 0.2521887 0.31043264
000010 18 e4 0a 3e 6a 58 3f 3e b0 4e 75 3e 69 b7 fa 3d
       0.13563573 0.18686071 0.23955798 0.12242014
000020 6d e7 16 3e d7 c5 6e 3e 2c d4 23 3e 6a 40 18 3e
       0.1473672 0.23317657 0.15998906 0.14868322
000030 80 c4 58 3e b8 47 28 3e 14 b8 6b 3e fe 7c 67 3e
       0.21168709 0.16433609 0.23019439 0.22606274
000040 74 35 6d 3e 5f f9 0c 3e d0 81 47 3e c5 0b 18 3e
       0.23164922 0.13767003 0.19483113 0.1484824
000050 8f e3 84 3e 15 72 31 3e 2f 4f 11 3e 02 77 98 3e
       0.25954863 0.17328675 0.14190362 0.29778296

fc_layers.1.weight f4 [192, 384]
000000 ae 23 19 3d ca e0 26 3d b3 82 df bb f1 7e 1d 3c
       0.037387542 0.04074172 -0.0068210005 0.009612785
000010 e6 61 4a 3d 77 04 8a bc fd fe 52 bd a8 67 22 3d
       0.04940977 -0.016847832 -0.051512707 0.039649636
000020 14 a0 0a 3c 2b cf 52 bd 37 37 11 3c 9c 37 0f bd
       0.008461017 -0.051467102 0.008863262 -0.034965143
000030 98 44 f9 3c 46 75 34 3d 7e 3d 54 3d 6b bc 67 3c
       0.030428216 0.044057153 0.051816456 0.014144043
000040 09 7d 1f 3d 1a e0 14 3d 8c 1b 18 bd 7c 77 9f ba
       0.038937602 0.036346532 -0.037135646 -0.0012166346
000050 94 6b 99 3c 9b 64 4e bd 8a 3e 3a bd 00 e1 53 3d
       0.018728055 -0.050388914 -0.0454698 0.05172825
000060 32 b3 e7 bc 0f da 45 3d ba 1c 4d ba 55 48 8f 3c
       -0.02828369 0.04830366 -0.000782441 0.017490545
000070 19 97 3d bc 15 89 23 bd b8 83 80 3d b6 f7 40 3d
       -0.011571669 -0.039925653 0.06275123 0.047111236
000080 70 de 6f 3d 6f 0b ca 3c c9 d1 ad bb 4e f1 39 3c
       0.058561742 0.024663655 -0.0053045494 0.011349035
000090 8a 09 44 3d 10 56 44 bc 7a f9 13 bd f6 51 22 3c
       0.04786066 -0.0119834095 -0.03612659 0.009907236
0000a0 44 10 83 3d 6e a3 8e 3c 53 61 d9 bc ce 0b 51 3d
       0.06399587 0.017411914 -0.026535666 0.05103665
0000b0 97 86 89 3c 0c b8 c4 bb 6f f7 5a 3c 25 1c de 3c
       0.01678781 -0.0060033854 0.013364657 0.02711303
0000c0 46 09 44 3d dc 7a ae 3c 90 64 45 3d 5c 84 9f 3b
       0.047860406 0.021298818 0.048191607 0.0048680734
0000d0 43 d0 13 3c 16 47 f0 3a 2a 76 21 3c d7 97 0e bd
       0.009021821 0.0018331732 0.009854833 -0.034812775
0000e0 08 ce 3f bc f4 69 d1 3c 58 a7 6e 3d 78 ff c0 3c
       -0.0117068365 0.025563218 0.05826506 0.023559317
0000f0 90 66 1b 3c 81 c5 49 3d 72 8b 88 3c 25 fc 1b 3d
       0.009484902 0.04926062 0.016668055 0.03808226
000100 0a b7 9c 3c fc ed be bc ce e1 be 3b 2a 58 69 3d
       0.019130249 -0.02330684 0.005825258 0.056968845
000110 ad 69 a5 bc 28 33 88 bc 15 7c aa 3b 42 c5 8b ba
       -0.020191992 -0.016625956 0.00520278 -0.0010663646
000120 93 26 14 bd 7c ab 85 3a 67 fb 72 3d d8 c9 be 3c
       -0.0361696 0.0010198201 0.059321787 0.023289606
000130 1e dc 4f bb 48 82 c5 3c a0 df bb 3b af d4 46 3d
       -0.0031716893 0.024109975 0.0057334453 0.048542675
000140 a0 fe 15 3c 9c 29 1e bd db ad de bc c4 0a 43 bd
       0.009154946 -0.0386139 -0.02718251 -0.04761769
000150 6c 59 ad 3c 67 e7 8a bc 21 c9 9c bc 0b 76 b3 bb
       0.021160804 -0.016956044 -0.019138874 -0.0054767183
000160 ac e2 45 3d a4 4c c5 bb 29 a5 b4 bc 93 55 c6 3b
       0.048311874 -0.006021099 -0.02205141 0.0060526817
000170 5c bb 02 bc 05 d7 9f 3d 5f 50 db 3c 90 41 5b 3c
       -0.00797924 0.078046836 0.026771722 0.013382331
000180 bb b1 28 bd c3 9b 21 bd 57 29 13 bd 5a d4 dd bb
       -0.041185122 -0.039455187 -0.035928097 -0.006769699
000190 01 ea 14 bd 50 f6 ee bb 93 4f 05 3b 62 32 25 3d
       -0.036355976 -0.0072925463 0.002034162 0.040331252
0001a0 79 66 48 bc d1 8e b2 bc cf dd 5d 3a b2 c9 3a 3d
       -0.012231463 -0.021796616 0.0008463533 0.045602508
0001b0 ec 71 07 3d 26 b9 da 3c d4 6b 24 3d c3 0c 0b bd
       0.03306763 0.026699614 0.040141895 -0.033947717
0001c0 2f dd d2 3c 11 46 a3 bc 06 44 09 bd 16 a9 0f 3c
       0.025740234 -0.019930871 -0.033512138 0.008768341
0001d0 dc 26 f9 bc 64 96 24 3d 56 ba 71 3d 12 4d e4 3b
       -0.030414037 0.040182486 0.059015594 0.0069671953
0001e0 3c d4 59 bc 78 80 c9 bb fc 99 db 3c bb bf 92 bc
       -0.0132952295 -0.006149348 0.026806824 -0.01791369
0001f0 74 7f 3e 3d c9 b1 9d 3c 3b a0 80 3d 7f bb 6e bc
       0.046508268 0.019249814 0.062805615 -0.01457107
000200 e6 75 95 3c 2b 04 ae 3c 41 8f 71 bb 02 43 57 3d
       0.018244695 0.021242222 -0.0036859068 0.052554138
000210 d9 dc ff bc 3a 74 2d 3d 01 b2 8f 3d 7b 5d 94 3b
       -0.031233238 0.04234717 0.070163734 0.0045277453
000220 88 d4 1b bd 50 6e 31 bd b7 6c 9e 3c dc 14 90 3c
       -0.038044482 -0.043318093 0.019338949 0.017588072
000230 14 1c 13 bd d2 f3 85 bc 21 1d 3f 3d 54 b3 7a 3b
       -0.03591545 -0.016351614 0.04665864 0.003825386
000240 14 d6 03 3d fc e8 c5 bb 85 ea 68 3d ed ae 18 3c
       0.032186583 -0.006039737 0.05686428 0.009319049
000250 ce 26 46 bd 37 be c2 3c 00 71 96 3c b8 21 6a 3c
       -0.04837685 0.023772342 0.01836443 0.014290266
000260 f0 6f 1c 3d 14 79 2b 3d e1 1a 7c bc b2 57 f2 3c
       0.03819269 0.041863516 -0.015387268 0.029582832
000270 de c3 c9 bc 7d 7d 37 bc 22 50 54 3c b2 3a b3 bc
       -0.02462953 -0.011199352 0.012958558 -0.021878574
000280 91 99 0d bd c0 7f a7 bc 0e b3 36 3c 05 c5 4b 3d
       -0.03457028 -0.020446658 0.011151088 0.04974844
000290 b2 0e db bc fa 76 68 3d 17 2d 0a bd 9a b4 ba 3c
       -0.026740406 0.05675409 -0.033734407 0.022791196
0002a0 94 2e 01 3b 02 01 45 3d 5d d9 1d 3d 1f 09 97 3c
       0.00197116 0.048096664 0.038537372 0.018436966
0002b0 3d 92 ec bc ea f4 b5 3c 4e 0a af 37 7c d7 0f bc
       -0.028878326 0.02221151 2.0866424e-05 -0.008779403
0002c0 3b 23 87 bc dc ce 46 3d 24 f8 66 3c 93 7c 5e 3c
       -0.016496291 0.04853712 0.014097247 0.0135795055
0002d0 b6 82 65 bd 20 86 83 bc 10 fe 40 3d 6f 91 23 bd
       -0.05603286 -0.016055167 0.047117293 -0.03993362
0002e0 80 0a 51 3d c4 32 29 bc c7 a6 54 bc 1a d6 c4 3c
       0.051035404 -0.010327045 -0.012979216 0.024027873
0002f0 83 ba b4 bc e2 07 42 bc 0c 9a d7 bc f5 02 a9 3c
       -0.022061592 -0.0118427 -0.026318572 0.020631293
000300 a0 54 32 3c 3e 8a 18 bd 99 ce 0f 3d 92 63 55 bd
       0.010884434 -0.037241213 0.035109136 -0.05209691
000310 37 0a e4 bc e5 bf 9d bb f6 ab 4f 3d e2 22 b3 3c
       -0.027836902 -0.0048141354 0.050701104 0.02186722
000320 44 12 5f 3c 10 64 b1 bc 16 0f 39 bd 89 4e f2 3c
       0.013615195 -0.021654159 -0.045180403 0.029578464
000330 70 4d bc bc 4e 95 69 bd ba 72 bc 3c dc 5a 01 bc
       -0.022986144 -0.057027154 0.023003925 -0.007895198
000340 d8 7a 95 bc b0 4f a2 bb ea 02 0d bd 51 ce 4b 3d
       -0.018247053 -0.004953347 -0.034426607 0.049757306
000350 5e e8 c8 3c ce 21 69 3d 02 fe 5d 3d 3b 03 6e bc
       0.024524864 0.056917004 0.05419732 -0.014527137
000360 ad 32 f4 bc 45 7a f7 3c 16 30 94 bc 14 7c cb 3c
       -0.02980932 0.03020967 -0.018089335 0.024839438
000370 8e 91 57 bd 84 5e 4d bc 57 61 d5 3a 4c b6 3e bd
       -0.052629046 -0.012534741 0.001627962 -0.04656057
000380 4a 5e 03 bc 5a 11 da 3c 92 e3 26 bd 0d cf d8 bc
       -0.008018086 0.026619602 -0.04074437 -0.026465917
000390 d1 9a 44 bc 09 fd de bb 7b b5 ce 3c 21 bd d8 bc
       -0.011999802 -0.0068050665 0.025233021 -0.026457371
0003a0 c2 87 9c bb 3d 60 05 3b c4 fc 0c bd cc 29 1b bd
       -0.004776926 0.0020351552 -0.034420744 -0.037881657
0003b0 a6 17 12 3d 23 0f 8e 3b e0 dd be bc bd b1 2e bd
       0.035667084 0.0043353005 -0.023299158 -0.042649973
0003c0 3b 9c f3 3c 65 24 25 bd 50 ff 2d bd 24 6f 33 3d
       0.029737582 -0.04031791 -0.042479813 0.043807164
0003d0 51 f7 37 3d dc 11 a0 bc f8 13 fa bc 8c b6 4e 3d
       0.044913594 -0.019539766 -0.0305271 0.05046706
0003e0 c2 58 4b bd ce 5f 35 3d 4b a9 f3 3c d7 21 1c bd
       -0.049645193 0.04428082 0.029743811 -0.03811821
0003f0 7b 4d 05 3c 82 10 ce bb 07 fd bc 3b 84 16 28 bc
       0.008136149 -0.006288589 0.005767468 -0.010259274

fc_layers.1.bias f4 [192]
000000 56 c6 67 3c 62 8f 3f 3d fc c5 bb 3c 5c d0 8a bc
       0.014146408 0.0467676 0.022921555 -0.016945057
000010 d2 22 e3 3b a2 78 01 bc 83 87 13 bd 3e bb e8 3c
       0.006931641 -0.007902296 -0.036017906 0.028409597
000020 4c 9e cc 3b 5f 17 2e 3d 8a bd b6 bc 34 f5 08 3d
       0.0062444564 0.042502757 -0.022307176 0.03343697
000030 20 78 ef 3c 00 be 54 3a 69 ee bb bc 58 ee 36 bc
       0.029232085 0.00081154704 -0.022940831 -0.011165224
000040 00 77 34 3d 7d 78 3f bd 4e e9 4e bb 40 41 2c bc
       0.0440588 -0.046745766 -0.0031572166 -0.010513604
000050 be 15 f2 3c 3e 34 06 bc bc b6 11 bc b2 69 8e 3a
       0.029551383 -0.008191166 -0.008893665 0.001086524
000060 de 16 d0 bc 37 00 c4 3c b9 36 43 3d 2c f2 b4 bc
       -0.025401529 0.023925884 0.04765961 -0.022088133
000070 8e 35 3d bb 7e 56 9f 3c 68 f6 d4 3c 79 07 93 3c
       -0.0028871032 0.019450422 0.025996402 0.0179479
000080 83 d1 06 3c f4 1f 33 3d 9f f9 ab bb 21 e2 ec 3c
       0.008228662 0.043731645 -0.005248263 0.02891642
000090 ef 34 b2 3c c8 f1 31 3d 07 e9 22 bd 60 bd 30 3c
       0.021753756 0.04344347 -0.039773013 0.010787338
0000a0 80 22 01 3d 4e 73 ec 3c 3f 4a 53 bc 1c d5 87 3c
       0.031527042 0.028863575 -0.01289612 0.01658111
0000b0 98 32 fe 3b ed d6 09 3d c6 16 4b 3c 9c 9c 16 bd
       0.007757496 0.033652235 0.012395566 -0.036770448
0000c0 18 48 91 bb 4d e1 25 3d b6 f2 65 bc 49 9a 2c bd
       -0.004433643 0.040498067 -0.014034918 -0.042139325
0000d0 3a 1e 73 ba e3 ba 34 bc 20 ce 03 3c 47 87 8a 3b
       -0.00092742185 -0.011030885 0.0080447495 0.004227552
0000e0 bb d9 0b bd 55 c8 fc bc 4c 15 60 3d 51 8e 1f bd
       -0.03414319 -0.030857245 0.05470781 -0.038954083
0000f0 b2 71 06 bd 89 ba 81 bc 4f 06 01 3d 5a b5 dc bb
       -0.032823272 -0.015836017 0.031500157 -0.006735486
000100 92 75 ff bc 69 9f 47 3d 7a 11 2a 3d 35 98 48 bd
       -0.031183992 0.04873601 0.041520573 -0.04897328
000110 bd b8 92 bc 98 17 18 bd e4 48 a0 bc fc 45 94 3c
       -0.017910356 -0.037131876 -0.019566007 0.018099777
000120 30 51 12 bd e2 3f 3f bc 4b 5a dc bc 2e da 8d 3c
       -0.035721958 -0.011672946 -0.026898524 0.01731595
000130 52 a6 f1 3c 76 44 3f bd a6 3d 16 3d 21 69 58 bc
       0.029498253 -0.04669615 0.036679886 -0.013208658
000140 71 00 e5 bc c4 5a 3c 3d 94 0d 06 3d 40 8d f7 3b
       -0.027954312 0.045985 0.032727793 0.00755468
000150 6e e9 e9 bc fc 39 2a 3d 11 9b a3 3c 59 b8 f2 bc
       -0.02855369 0.041559204 0.019971402 -0.02962892
000160 f2 67 18 3c 1a a0 8d 3c f8 ab 36 3d 55 96 d9 bc
       0.009302126 0.017288256 0.044597596 -0.026560942
000170 8f e1 f1 bc 0e 55 3d 3d dc cd 56 3d 2f 89 3d bd
       -0.0295265 0.046223693 0.052442417 -0.046273407
000180 df bc 98 bc a7 93 b3 3c bf 96 81 bc ce bd c7 3c
       -0.018644748 0.021920992 -0.015818952 0.024382498
000190 b6 b6 04 3d 70 78 a0 bc 57 3f 09 3d 09 c8 89 bc
       0.03240081 -0.01958868 0.03350767 -0.016819017
0001a0 ae 4c fc bc 95 47 83 3b 9d f9 46 bc a2 50 a3 3c
       -0.030798282 0.004006336 -0.012144473 0.01993591
0001b0 58 fa 07 3d ba cd 16 3d fb a5 82 bc 05 3a 86 3c
       0.03319773 0.03681729 -0.015948286 0.016385088
0001c0 26 2d 47 3d e0 26 d5 3b 60 ad b9 bc b7 d4 c6 3c
       0.04862704 0.0065048784 -0.02266568 0.024271352
0001d0 9e 34 52 bc 02 78 94 bc 28 1a 34 3c 3f fa 05 bc
       -0.012829928 -0.01812363 0.010992564 -0.008177339
0001e0 de 9b 70 bc e5 39 9f bb 01 fd 04 ba 13 df 49 3d
       -0.014685599 -0.0048591965 -0.0005073101 0.049285006
0001f0 27 f5 a0 3c 60 3d e4 3c e5 46 2b 3d 9c 61 a6 3c
       0.019648148 0.027861297 0.041815657 0.020310216
000200 46 69 f7 3c 9f 50 07 bd 79 92 1f 3d ab af 25 bc
       0.030201565 -0.03303587 0.038958047 -0.010112683
000210 5b 38 06 bd 07 e9 f0 bc fd ab 05 bd 74 42 14 bd
       -0.03276859 -0.029407991 -0.032634724 -0.036196187
000220 65 ae a4 bc 58 0c 59 bb b2 aa 86 bc 2c e6 de 3c
       -0.020102689 -0.003311893 -0.016438816 0.027209364
000230 ac 12 28 3d fe e1 b4 3c 45 e9 09 3d ec ba 3d bd
       0.041033432 0.022080418 0.03366973 -0.04632084
000240 5a 6a 46 3c 45 52 3f 3d 14 3d df bc d4 c6 f8 3b
       0.012110317 0.046709318 -0.027250804 0.0075920615
000250 f1 81 c0 bc ca 3e 9c bb 31 67 3f bd 95 61 1f bd
       -0.02349946 -0.004768227 -0.04672927 -0.03891142
000260 fc 35 14 bd fc b5 10 bd f4 b3 28 3d 34 39 13 3d
       -0.036184296 -0.035329804 0.04118724 0.035943225
000270 e3 97 10 3d fd 44 11 3d d7 e4 ca bc 37 9b 4e 3d
       0.0353011 0.035466183 -0.024767322 0.050440993
000280 6a 1a 0f 3d 33 ae 20 bd 30 a0 e8 bc eb cf cf 3c
       0.0349373 -0.03922863 -0.028396696 0.025367698
000290 35 e1 5f 3c f9 ee c4 3c 82 7d ed 3b 20 f5 00 3c
       0.013664533 0.024039732 0.0072476277 0.007870942
0002a0 04 e4 05 bd 48 ec 41 bb 02 8e cc 3c 7e ff 42 3d
       -0.032688156 -0.0029590297 0.024970058 0.047606938
0002b0 36 71 a4 3c 3f 46 18 bc 66 22 b6 bc 5c f0 18 3d
       0.020073514 -0.009294092 -0.0222332 0.0373386
0002c0 fd 17 dd bc 1a 2b 10 3d 84 fa 3a 3d 89 6e 45 bd
       -0.026988978 0.035197355 0.045649067 -0.048201118
0002d0 cb 89 51 3b 02 b0 13 bd 4a cf c1 3c d6 18 25 bd
       0.0031973 -0.036056526 0.023658413 -0.04030689
0002e0 73 30 3b 3d 0d ea c6 bc 5a 44 10 bd 16 7c ce 3c
       0.0457005 -0.024281526 -0.035221435 0.025205653
0002f0 e8 f3 5b ba 49 75 84 3b 72 cf e7 3b 57 6b 8b bc
       -0.0008390532 0.004042302 0.00707429 -0.017018957

fc_layers.3.weight f4 [96, 192]
000000 20 45 4a 3d 56 03 64 3d 75 37 e5 bc 16 92 9b bd
       0.04938233 0.055667244 -0.027980546 -0.07596223
000010 6e cf 2f bd 63 96 2c 3c 84 29 82 3d a2 40 7e bc
       -0.04292243 0.010533902 0.06355575 -0.015518339
000020 40 6e 71 3d 73 7b ad 3c 94 31 40 bd da ec 47 3d
       0.058943033 0.02117703 -0.04692228 0.048809864
000030 e2 2a a4 3c f7 c6 63 bd 34 04 5c bd 82 73 13 bd
       0.02003998 -0.05560967 -0.053714946 -0.03599883
000040 e3 4c 8e bd 55 9f a7 39 3c 8b c8 bc 25 b7 0e bc
       -0.06948259 0.00031971434 -0.024480455 -0.008710657
000050 37 63 1d bd 2e e4 89 bc 7a 44 55 bc 0f 56 24 bd
       -0.038424697 -0.016832437 -0.013016814 -0.040121134
000060 e9 da 7d bd 01 7e 6f b9 ed fb 10 3d 93 15 72 3c
       -0.061976347 -0.00022839756 0.035396505 0.0147756515
000070 32 38 48 3d d3 91 09 bd 24 0e 82 bc 30 91 ce bc
       0.048881717 -0.033586334 -0.015875883 -0.025215715
000080 18 f9 0b 3d df 3c 82 bc 86 2d 4c bd 2a 9e 13 3c
       0.0341731 -0.015898166 -0.049848102 0.009009877
000090 06 20 37 3c 24 cf 3c 3d f5 c9 75 3d fe 65 63 3d
       0.011177069 0.046095982 0.060007054 0.05551719
0000a0 33 a2 96 bc ec c1 31 3d 94 24 db bc c3 0a de 3b
       -0.01838789 0.04339783 -0.02675084 0.0067761852
0000b0 f9 21 87 bd d8 25 d9 3b eb 14 1c bd 25 f0 27 3d
       -0.06598277 0.006626826 -0.038105886 0.041000504
0000c0 d8 ce 20 3d 20 a6 67 bd 84 8c 46 bc 90 aa 14 3d
       0.03925976 -0.056554914 -0.0121184625 0.036295474
0000d0 47 0a 65 bd 85 65 31 bd 59 23 77 bc 59 96 2d 3d
       -0.055918004 -0.043309707 -0.015084111 0.04237971
0000e0 06 e3 7b 3c bc 74 16 3d 79 76 81 3d c4 eb 79 bc
       0.015373951 0.03673242 0.06321425 -0.015253965
0000f0 77 48 9c 3b be c8 8b 3d 5f b6 4e 3d 19 c6 1d bd
       0.0047693807 0.06825398 0.05046689 -0.038519
000100 37 5f 44 3d bd 6a 93 bd 5c c3 52 3c 95 77 88 3d
       0.047942366 -0.07198093 0.01286396 0.066634335
000110 8c da 4a 3d 81 f0 04 bd 7a 60 80 bd 32 69 32 bd
       0.04952483 -0.032455925 -0.062684014 -0.043557353
000120 d5 ff d6 bc 2c d4 1d 3d 13 9f 4f 3d d3 ad 7d bd
       -0.026245037 0.03853242 0.050688814 -0.06193335
000130 88 60 aa 3c 5a 1c 51 bd 02 df 5d bd c8 7e ab bc
       0.020797983 -0.05105243 -0.054167755 -0.020934477
000140 be 35 c9 3a e6 37 80 bd 15 08 c1 3c d3 15 82 b8
       0.00153511 -0.06260662 0.023563424 -6.202948e-05
000150 34 a7 70 bd c7 36 1b bd f6 b2 d3 3b 70 86 26 3d
       -0.058753207 -0.037894037 0.006460543 0.040655553
000160 b7 64 47 bd 7d 9d 68 3d fc 1d 71 3c b7 67 a0 3b
       -0.048680034 0.056790818 0.0147166215 0.0048951763
000170 f5 0c 58 bd 01 a6 4a 3d 5c 80 46 3d cc f6 23 3d
       -0.05274673 0.04947472 0.048462257 0.040030286
000180 ec 5c 2a 3d 08 76 11 3d f4 ca e4 3c bd a0 c3 bc
       0.041592523 0.035512954 0.027928807 -0.023880357
000190 29 08 9f bd f6 45 4f bd e8 2b 80 bd 7f f0 6d bd
       -0.07765228 -0.05060383 -0.062583745 -0.058090683
0001a0 20 1a 88 3c 4f ff 2e 3d ec 33 8e bd 39 ab 20 3c
       0.01661402 0.04272395 -0.06943497 0.009806448
0001b0 18 d4 d9 3a 24 51 1b 3d 4c 4b 0f 3d 12 b0 87 3d
       0.0016618995 0.03791918 0.034983918 0.066253796
0001c0 b6 f7 b7 bc 03 71 23 bc e9 be 03 3d 7b 3f 53 3d
       -0.022456985 -0.009975675 0.032164488 0.05157421
0001d0 66 b4 01 3d ae 36 4a 3c fd 29 4f bd eb 0c 12 3c
       0.031666182 0.012342138 -0.050577153 0.008914213
0001e0 5f ac 0c 3d c5 84 71 3d bb 4c 6f 3d a3 0c 34 bc
       0.034344073 0.05896451 0.058422785 -0.010989341
0001f0 64 16 90 3c 40 d9 48 3d b2 89 8a bd 70 d9 4d 3c
       0.017588802 0.04903531 -0.067645445 0.012564048
000200 b2 90 55 3d 9b cc 28 3c 32 38 2c 3c a0 0f 2b 3d
       0.052139945 0.010302688 0.010511445 0.041762948
000210 de 32 f7 3b 1d 4d 30 bc 5a 00 95 3b 5a ee 90 bd
       0.0075439056 -0.010760573 0.004547161 -0.07076712
000220 9e 19 8f 3c 62 1e 3b bd d6 61 b2 bc fc 53 6b bd
       0.01746827 -0.045683272 -0.021775167 -0.05745314
000230 9a c8 79 3d 82 1b 7e 3d 42 db 39 bd f5 13 83 bc
       0.060982324 0.062037952 -0.045375116 -0.016000727
000240 79 6c b4 3c 7f 29 8d 3d 70 36 8a 3c a5 1d 11 3d
       0.02202438 0.068926804 0.016871661 0.03542866
000250 d4 4e 6f 3d da 7e bf bc 5f 72 35 bd c6 c3 3e 3d
       0.058424786 -0.023375917 -0.044298526 0.046573423
000260 d8 6d 86 3d 7a b2 b2 3c 81 ae 5e 3b b9 a0 81 bd
       0.0656392 0.02181362 0.0033978524 -0.063294835
000270 e3 ec 0e bd ca c3 90 bc 70 c5 b1 bc a9 b7 b2 3d
       -0.03489388 -0.017671485 -0.02170059 0.08726437
000280 67 d1 b1 3d 8c af 44 3d a3 93 2c bd db 59 92 bd
       0.086825185 0.048018977 -0.042132985 -0.07146045
000290 6c 91 22 bd 8b 8d 04 bd 39 47 1b 3d db 48 61 3d
       -0.039689466 -0.03236155 0.03790972 0.05500112
0002a0 9b fd cb bb 77 10 3d bd 47 1d 4d bc ea b5 40 bd
       -0.0062253005 -0.04615828 -0.012519187 -0.047048487
0002b0 15 b1 51 3d 1b bd 87 bc 6f 23 8e 3d b2 3f a1 3b
       0.05119427 -0.016569665 0.06940352 0.004920923
0002c0 28 70 04 bd 74 bf 8b bd b9 8a 3d 3d d8 18 06 3d
       -0.032333523 -0.06823626 0.046274874 0.032738537
0002d0 3a 41 d2 ba d9 c8 5c bb 15 1c 18 3c 3a 20 83 3d
       -0.0016041168 -0.003368905 0.009284039 0.06402631
0002e0 ef 5c 97 3d 33 e4 e0 3c 1f 8a 83 3d 96 b6 89 3c
       0.073907726 0.027452564 0.06422829 0.016810697
0002f0 3b dc 6e bc cd 97 66 bd 87 19 51 3d a9 59 35 3c
       -0.014578874 -0.056297112 0.051049735 0.01106874
000300 40 5f 25 3d f3 6f a4 3b 72 90 56 bd c6 7d 65 3d
       0.04037404 0.005018228 -0.052383848 0.05602815
000310 4a e4 85 bd 0e d3 86 bd 59 6a 34 3d 1e e6 aa 3a
       -0.06537683 -0.06583224 0.044046734 0.0013038551
000320 72 9b 87 3b cb 35 85 3d a1 3e 8c bd e9 db 8c bb
       0.0041384036 0.06504401 -0.06847883 -0.0042986763
000330 50 8d 93 3d 5b df 8f 3d b3 1d 87 bd a2 c3 17 3d
       0.072046876 0.070250235 -0.065974616 0.037051804
000340 66 5b 78 3c b6 91 f8 3c 1c 03 57 bd d0 31 44 3d
       0.01515851 0.030342918 -0.0524932 0.047899067
000350 72 5e 25 3d ae c1 62 bd df 1a 48 bc ae eb be bb
       0.040373273 -0.05536049 -0.012213438 -0.005826435
000360 c9 aa 5c bd ed 3b 8e bd 80 3b 1b bd 63 9c 7c bd
       -0.05387381 -0.06945024 -0.03789854 -0.06167258
000370 d5 02 19 bd 19 ef 64 3d 30 7c 6a 3c 0d 33 be bc
       -0.037356216 0.055892084 0.014311835 -0.023217702
000380 30 ec 6d 3b 3b d5 53 3d 1e 0c 8e bc 05 c7 74 bd
       0.0036304109 0.051717024 -0.017339762 -0.059760112
000390 c4 9a 28 3d b7 42 ed 3c d5 b1 2e 3d ce 0f 80 bc
       0.04116322 0.028962476 0.042650063 -0.015632536
0003a0 b8 05 56 bd 06 60 22 bd 2c 30 8c 3d 8c 9c 93 3d
       -0.052251548 -0.039642356 0.068451256 0.07207593
0003b0 7c 23 2f bd dc 7f b4 3a 39 c9 5a 3d f0 54 6e 3d
       -0.04275845 0.0013771015 0.053414557 0.05818647
0003c0 65 b1 5b bd 31 d0 92 bc 2f 41 84 bd 15 2a 9e 3c
       -0.053635973 -0.017921539 -0.06457745 0.019307176
0003d0 14 30 1f bd c2 23 9d bb 92 b1 80 3d 8f 0d 88 bc
       -0.03886421 -0.0047955224 0.06283869 -0.016608028
0003e0 5c bf 8d 3d f3 84 ea bc e4 ca 34 3c a6 6c cc 3c
       0.069212645 -0.028627848 0.011034701 0.024954151
0003f0 6a e9 66 3d 32 43 a5 bb df 5d 84 bd 2c 53 6e bd
       0.056374945 -0.0050434107 -0.06463217 -0.058184788

fc_layers.3.bias f4 [96]
000000 5b 3e 17 3d 02 dd 58 bd 94 b7 6f 3d 1b 2b d6 bc
       0.0369247 -0.052945144 0.058524683 -0.026143601
000010 6a 32 ac bc 7f ec 93 bd d9 77 77 3d 0a f8 ba 39
       -0.021020133 -0.072228424 0.06041703 0.00035661488
000020 6b a7 91 bd 82 bb cc bb 8e b0 d5 bc 27 0e 1a bb
       -0.071120106 -0.0062479386 -0.026085164 -0.002350697
000030 1e 2d 87 bc 6d 7f 25 3d ee d1 dc ba 11 2a 4c 3c
       -0.016501006 0.040404726 -0.0016847232 0.012461201
000040 c5 69 12 bd 57 74 61 3a 1a d1 89 3d 35 6d 69 bc
       -0.0357454 0.0008600405 0.06729336 -0.014247228
000050 0c d9 61 3d b1 a7 ac 3d a1 bb 4c bd ff a5 94 3d
       0.055138633 0.08430422 -0.049983624 0.07258224
000060 40 e8 07 bc 04 4b 7b bd 94 12 ee 3a 50 bb 45 3d
       -0.008295119 -0.061350837 0.0018163496 0.04827434
000070 f7 a3 1e 3d b9 63 35 bd cb 04 5c bd e7 59 ec bc
       0.038730588 -0.044284556 -0.05371551 -0.028851463
000080 59 75 af bc cf 9d 68 3c aa 60 5a bd 9d fd 73 bd
       -0.02141826 0.014197781 -0.053314842 -0.059568036
000090 81 5d 82 bd 14 a7 f3 3c 77 a6 a0 bc fa 61 84 bd
       -0.06365491 0.029742755 -0.019610627 -0.06464
0000a0 f1 12 59 bc a7 ad 39 3c fd d8 07 bd 91 3d 7b bd
       -0.013249145 0.011332906 -0.03316592 -0.06133801
0000b0 2f 6b 27 bc e0 b3 00 3d 83 ee 39 bd e2 e8 a5 bc
       -0.010218426 0.031421542 -0.045393478 -0.020252649
0000c0 bc 00 11 3d d6 3e d7 bb 87 f2 b0 bc d1 02 3a 3d
       0.03540109 -0.00656877 -0.021600021 0.045412842
0000d0 e2 a1 91 bd a7 f2 50 3b 97 cb c5 3c 29 85 07 3b
       -0.07110955 0.0031882913 0.02414493 0.0020678735
0000e0 e6 ce 6e 3d fe 28 20 bd 50 29 44 3d 94 e1 19 bd
       0.058302782 -0.039101593 0.04789096 -0.037568644
0000f0 a2 47 e6 bc 7b 4c 56 3d ed e1 42 bd 69 14 ad 3c
       -0.028110329 0.05231903 -0.04757874 0.021127896
000100 a1 98 0e 3d c1 f1 98 3d 35 fd 40 bc 8b 73 4b bd
       0.034813527 0.07467986 -0.011779119 -0.049670737
000110 48 3d 25 bd af 4d 41 3c 82 f8 6f bd 8b 25 f8 3c
       -0.040341645 0.011798306 -0.058586605 0.03029134
000120 1d 7e d4 bb 81 d7 25 bd 0f bc 3a 3d a0 c0 15 3d
       -0.0064847604 -0.040488724 0.045589503 0.036560655
000130 d6 4c 0c bd 13 b8 b7 3b 6e 58 73 bd db c8 13 bd
       -0.034252964 0.00560666 -0.059410505 -0.036080223
000140 8a f3 5e 3d d8 80 8b 3c dd 60 01 3c ea 73 f9 3c
       0.054431476 0.01702921 0.007896629 0.03045078
000150 28 11 89 bb 20 a3 78 3d 3f 02 56 3d c9 85 79 3d
       -0.0041829534 0.060702443 0.052248236 0.060918603
000160 3e ad 09 3c 9b 1e ec b9 d0 ae 06 3d 3f 4a 3a bd
       0.008403121 -0.0004503623 0.032881558 -0.045480963
000170 26 44 05 bd 63 0b 2e bc 88 64 40 3d da 6a 0f bd
       -0.032535695 -0.010622832 0.046970874 -0.03501401
